ctc_saved_models/model_epoch300.pth (torch, 114079 bytes, 14 tensors)

cnn.0.weight f4 [16, 1, 7, 7]
00000000: 3866 20be 625e 0bbd 8160 20bb 62db ab3d
00000010: bbb0 f03d c326 42bd 4e00 5dbe e1b7 6f3e
00000020: 236f 6c3d 25b6 a4bd dcca 823e 8571 343e
00000030: ea81 c03e 0953 a7bd 39fd 993d 221d 6bbd
00000040: 788d d3bd c32a 933d 9f2e af3e 0ea1 de3e
00000050: 23cf 983e 0a62 d1bd c486 863b 3d08 a3be
00000060: e8eb efbd 1983 6fbd 8519 df3e 49f8 863e
00000070: 33da 17be 2c90 5abe 70a3 ecbe 544f 92be
00000080: e571 06be 6518 bb3d e352 cb3e 65b7 443e
00000090: c192 00bd 8111 ccbe a3a8 dfbe e85f f0be
000000a0: 1416 c2bd eab7 b03e bdf7 873e 23e7 823e
000000b0: 0fb8 d03d 1471 26bd cb8f 9fbe 7a9f 0bbf
000000c0: 9075 42be 469d febd 3e7a 433e 09ee cb3e
000000d0: 7019 cd3e 53b0 ea3e 4af7 e63e 4a19 ae3d
000000e0: 6541 093e 6529 2d3d 6c3d 333e bf6d ba3d
000000f0: f044 99bd 1715 af3b 1cfa fd3c 5e88 0c3e
00000100: 968e 9c3c 060c e4be a1f5 f0be 4b0f febe
00000110: a583 fdbe 6aca cdbe daab bebd 72fa 0ebe
00000120: ef9e 03bf 8fec 0dbf a278 21bf f379 07bf
00000130: a934 14be 9af6 b93d ccba 8dbd a140 c53c
00000140: 3704 4bbe de31 5abe 5cab 23bd 82ba 273d
00000150: 0985 a2bc 92d6 173d ad25 0d3e f33a ed3d
00000160: 1aa1 603e 18ad f43e 3548 aa3e e584 01bc
00000170: fbe9 d73a 72bc e23d f9b6 b03e 9422 d93e
00000180: 45b2 9b3e df39 bd3e 9dc1 3a3e 5819 193c
00000190: dfb2 3d3e 4ac9 d23d ed76 f2bc 2a9c ac3e
000001a0: 2ddd b43e 2144 213e 54d2 f93d 4b44 1a3e
000001b0: 7dca 113e cd67 af3d 031d 693e 0aee 683e
000001c0: 7d3d 313e 7689 56bd ef09 63bd fea7 8ebe
000001d0: dd5e 16bd 6270 89bd a7b6 a5bd 1390 4d3e
000001e0: fa99 9cbc 0f44 2fbe fb3d 98be 42f8 1ebd
000001f0: 631c 2bbd 519b 333e 6d8d 123e 3afc 2a3e
00000200: d8be 06be 4663 a2be 424d 87bd f87b 613e
00000210: ec8c a7bb fc08 11be ced1 cd3d 1445 c33c
00000220: ec2c 9bbd 0c09 6f3d cda0 ae3d 73b0 0abe
00000230: 70d1 93be 838e 7cbe b580 5fbe 1ae3 9fbe
00000240: 7330 6fbc 5d66 4cbb ffd1 b4be 068d 453e
00000250: ec21 5f3e 3dee 043e 8a65 4d3c d091 42be
00000260: 2b7c 14be d28c 7abe a2bc 97bd f6ba 2e3d
00000270: 761f 323e 651f 7b3d 65b1 28be cc3d 4abe
00000280: b594 2ebe 58a0 12be 0924 5d3c 31f2 683d
00000290: 189a 363e 3829 18bd ee6c 8a3c f23f 923d
000002a0: 8969 e6bd fc59 93bd 075f 95bd 1123 fe3d
000002b0: 4f2f 693d 1e39 3b3d e490 893e 91e3 23be
000002c0: f9c6 77bd 9854 89b9 366a 0abe 5d98 283d
000002d0: c8e4 4b3e d54c 033f e718 6dbe 1c73 8cbd
000002e0: e2c8 57bd 746b 83be 0586 33be b253 d0bc
000002f0: 709a 163f 1548 44be d9b4 dbbd f185 d7bd
00000300: 130b 95be 7138 96bd a6c7 9a3c 28a5 c83e
00000310: 5c55 98bd 11c0 12be 4b54 203d f9ce 82be
00000320: a4ff 88be 5c71 66be 4baf f43d 7668 27bc
00000330: 48e8 c63d 9133 00be 73fc 9abe b98d 7dbe
00000340: 767c a7bc e605 f83c fed1 443d d0ca 5ebd
00000350: 6747 62be 4d8b a1be 18f5 88be 7cc5 36bd
00000360: 5fb0 7c3e 3984 c73c f391 18bd 77d8 9cbe
00000370: e901 46be c241 88be abd0 fbbb aeef ac3e
00000380: 622a 8ebd 8d83 38be 9d60 4cbd a027 e9bd
00000390: 689d 3a3d a2b4 853e 3e2b 0f3f 5595 9d3d
000003a0: 53c8 81bd bbe4 81bd 7341 4f3d fc6b 973d
000003b0: c2fa bf3e 4afb fc3e d0ba d53d d570 1cbe
000003c0: 7639 4dbd 83cb 2b3e a94a 863e 972e a43e
000003d0: 2e8b c63e fc9e e1bc fe32 fabd 1977 86be
000003e0: 53ae 72be 57d5 d6bd 9878 85be 8cb5 47be
000003f0: 9674 6abe a531 8dbb b6c2 0cbe b43a afbe
-0.15663993 -0.034025557 -0.0024471583 0.08391453 0.11752459 -0.047400247 -0.21582147 0.23409988
0.057723176 -0.08042554 0.25545394 0.1762143 0.37599117 -0.081701346 0.075190015 -0.05740083
-0.103297174 0.071858905 0.34215257 0.4348225 0.29845533 -0.102237776 0.004105421 -0.31842223
-0.117149174 -0.058474634 0.43574157 0.26361302 -0.1482933 -0.2134406 -0.46218443 -0.28576148
-0.13129385 0.09135512 0.39711675 0.19210584 -0.031389955 -0.39857104 -0.43683347 -0.4694817
-0.09476867 0.34515315 0.26556197 0.25566968 0.101913564 -0.040635183 -0.31164393 -0.54540217
-0.18990159 -0.12432341 0.190896 0.39830044 0.4005847 0.4583765 0.45110542 0.08500917
0.13403852 0.042275805 0.175039 0.09102964 -0.07483852 0.0053430903 0.03100305 0.13723895
0.019110959 -0.44540423 -0.470624 -0.49621043 -0.495145 -0.40193492 -0.09310122 -0.13962725
-0.5141439 -0.55439085 -0.63074696 -0.52920455 -0.14473213 0.09080239 -0.06920394 0.024078669
-0.19825827 -0.21308085 -0.039958343 0.040949352 -0.019838827 0.037069865 0.13783903 0.11583509
0.21936455 0.4778831 0.33258215 -0.00790522 0.001647293 0.11071099 0.34514597 0.42409194
0.30409446 0.36958215 0.1823792 0.009344421 0.18525265 0.10292299 -0.029597724 0.33712894
0.35324994 0.15748645 0.1219832 0.15065114 0.142374 0.0856472 0.22764973 0.22747055
0.17308612 -0.052377187 -0.055429395 -0.27862543 -0.036711562 -0.067108884 -0.08091479 0.20074491
-0.01911639 -0.17115806 -0.29734787 -0.038810976 -0.04177512 0.17539717 0.14311762 0.1669778
-0.13158739 -0.31716365 -0.06606533 0.22019947 -0.0051132347 -0.14163584 0.10049783 0.02383665
-0.075769275 0.058358237 0.08526764 -0.13543873 -0.28870726 -0.24663739 -0.21826442 -0.31227952
-0.014598954 -0.0031188943 -0.35316464 0.19292077 0.21790284 0.12981506 0.012536416 -0.19000936
-0.14500491 -0.24467781 -0.07409026 0.04265877 0.17394814 0.061309237 -0.1647392 -0.19750136
-0.17048915 -0.14318979 0.013497361 0.056871597 0.1783222 -0.037148684 0.016897645 0.07141103
-0.11250598 -0.071948975 -0.07293516 0.12409032 0.056929883 0.045708768 0.26868355 -0.16004778
-0.06049249 -0.00026193704 -0.13517079 0.04116093 0.19911492 0.5128911 -0.2315403 -0.06857893
-0.05268181 -0.25667918 -0.17531593 -0.025430534 0.588294 -0.19168122 -0.10727853 -0.10523594
-0.2911001 -0.07334984 0.018894028 0.39188504 -0.07438156 -0.1433108 0.039142888 -0.25548533
-0.26757538 -0.2250418 0.11947497 -0.0102177765 0.09712273 -0.12519671 -0.30270728 -0.24761094
-0.02044509 0.03027625 0.048051827 -0.054392636 -0.2209755 -0.3155159 -0.26749492 -0.04462193
0.24676655 0.02435504 -0.037248563 -0.306339 -0.19336666 -0.2661267 -0.0076847873 0.3377661
-0.06941678 -0.18018933 -0.049896825 -0.11384511 0.04556027 0.26114374 0.5592536 0.076944984
-0.06337037 -0.06342455 0.050599527 0.07393643 0.37496 0.49410468 0.10436022 -0.15277417
-0.050103627 0.16776852 0.26228836 0.32066795 0.3877806 -0.02754163 -0.12216757 -0.2626274
-0.23699312 -0.1048991 -0.26068568 -0.19502848 -0.22896037 -0.0043088966 -0.13746151 -0.34224474

cnn.0.bias f4 [16]
00000000: 8887 36be 63f0 a2bd ccb1 f43d 4b82 3f3e
00000010: f43c cb3c 6652 a0bd f824 0abe 23bf b33d
00000020: 9a73 7b3e c736 333e 2aad e83d 21d3 8c3e
00000030: 12ef 0bbe 3b82 443e b475 893c 9c03 593c
-0.17825139 -0.079560064 0.119479746 0.18702047 0.024809338 -0.07828216 -0.13490665 0.08776691
0.24555817 0.17501365 0.113611534 0.2750483 -0.13665417 0.19190304 0.016779758 0.013245489

cnn.2.weight f4 [32, 16, 3, 3]
00000000: b669 84be 689f 2a3d cf06 eabe 47f4 ebbd
00000010: 69b0 8d3c f370 763e 3d82 923d c1e1 363e
00000020: 5733 693d 8f9b 1d3c f205 60be 44a2 7ebe
00000030: 3be3 05be 4140 f8be e45b fdbe cdd0 b03d
00000040: f57d a4be 9a99 87be a990 8cbe 915d 3e3d
00000050: d1de 4a3e 570d 10be 14a6 2e3e 2aac 263e
00000060: f787 1a3c 17e8 8f3e 610d 95be c989 063e
00000070: 76c5 9d3e 8a6f c2be 8a55 0f3e 1392 773e
00000080: cd1f 1ebe 23d2 ae3e a069 113e 7d52 42be
00000090: c7ca 49bd 5802 483e 9370 d5be a300 e2bc
000000a0: f2d1 043d 537f 36bf ac4c d23d de02 ba3d
000000b0: 7291 f9be d7ae 45bc 42f9 61bd 0da0 14be
000000c0: d6d8 70be 84b9 0ebc e1b3 713e d063 fcbd
000000d0: e07d 1c3d 5b7b 393e 4226 cc3d 626e 043e
000000e0: 1517 aebd 7a53 a73d e3cc 3fbd 6aa9 6a3d
000000f0: fa5e 323c da80 043e bc19 053d 9d9b 153e
00000100: d350 2f3d 3ac4 15bd bc51 78bc c680 0abf
00000110: ce1a da3d 5107 09be 6e7c 8ebe 5793 803d
00000120: b766 3b3e 8df9 183e 0232 68be f9ce 0cbd
00000130: 0a3a a23e 9dd8 be3b d5a4 7c3c 7ed3 7b3e
00000140: 808c 94be 6f9f 793e 3772 1f3d 8e13 f3be
00000150: 39ca 5f3e 944e 203e 912a cbbe 9ec3 e63c
00000160: 53e9 2e3e 21af 49be 44ee 173e cd6d e0bd
00000170: 5a7b 493e 87c9 ff3d 7d93 6cbe 1714 3cbe
00000180: d462 0d3e 27c6 dbbe ddc9 ebbd b9de a93e
00000190: eb54 a7be 88d4 983e 4790 883e 70fa 47bf
000001a0: 3253 923e c6b7 1b3e 9951 0cbf 91b0 4dbd
000001b0: a9d0 023e a956 383d 5d70 c9be 6849 cf3c
000001c0: d9f8 f1bd 9fe8 87be 6970 b9bd 1167 b4bd
000001d0: e3b7 a53d 6637 9cbd 17fe debe 31e6 7d3e
000001e0: 809c 843d bdab 17bf 61ee b03e 6842 b13e
000001f0: 7f99 98be 83e9 5c3e 2e4a ca3d 783b 953e
00000200: 98a8 ee3c 2cb0 afbd 5102 2e3e 8763 183e
00000210: 4a65 5fbe 0554 34be d0ce 343e 5b05 00bd
00000220: 7da9 753c 246a 663d 94bf e7bc eeba 42bc
00000230: c99d 273d 522a 333d 2200 da3c 3fbd 7a3d
00000240: e221 99bd 6b1d 6e3e 10b1 95be 3f77 ffbc
00000250: e55e 013e 4e00 a9be b343 4d3c 1a85 6d3e
00000260: b02f d33d b51e 39be a61a 96be 0052 94bf
00000270: 20db efbd f55d bbbe 192f debf cc47 7dbd
00000280: 74d1 2dbd f429 89bf f0a2 46be de3f 0cbe
00000290: 831b 5a3d aa19 9abe 0f6d 21be 4cc3 3f3e
000002a0: 878e 4dbe da75 e03d 2233 a53e 4de4 ba3e
000002b0: 8887 3e3d 82f4 b53b 5e6b 883e 9382 50bd
000002c0: 1a1e c83b c7ac 0d3e df7c 173d c356 7fbd
000002d0: c2eb 8e3d 460b 433d 73f8 083d d2bc a73d
000002e0: 78f2 a83d f844 af3d ee05 cb3d ba6a 813e
000002f0: 19ef e63d 7454 e6bd 417d 67bd d219 45be
00000300: 755f f63d 5ee7 edbd ac35 47be ba18 923e
00000310: 6d9f ac3d ed28 4ebe 4995 25be 71a8 62bc
00000320: bcf8 12bf f9da 36bd 21c6 85be a0db 3fbf
00000330: cda8 bc3d ef8a bb3d 0fa2 383e 6edf 533e
00000340: c85e 3abe cb96 38be 6b95 bf3e dd86 84be
00000350: 60f7 46be d4ad 1d3d 2176 8cbe dc43 303d
00000360: 966d a33d eb43 f63d 87e3 603e f7ef 793e
00000370: a05f 79bd 76ae 423e 642e 123e d56a a23d
00000380: 7158 373e 3c13 513e 8125 173e ec6f aabb
00000390: 7bc2 833e 3de5 fe3c eaa9 c5bd 88fb cf3e
000003a0: 8ca0 d03d ecab 92be 0794 693e ff83 abbe
000003b0: 3551 5cbe aec8 86be f159 08bf 4e2b 0bbd
000003c0: 61b5 30bb 1f81 93be 163e 533e 1c5f aabe
000003d0: 0a8c aabc 51b0 35be daa0 b3be 12c3 91bd
000003e0: 3309 91bd da96 c4bd d26c bc3d 47c0 923c
000003f0: daaa 4cbe ca34 10bf 3d8f f6be 1930 59be
-0.258619 0.041655928 -0.4570832 -0.115212016 0.017296033 0.24066524 0.07153747 0.17859556
0.056933727 0.009619608 -0.21877268 -0.24866587 -0.13074963 -0.48486522 -0.4948417 0.086335756
-0.32127348 -0.26484376 -0.27454117 0.04647595 0.1981156 -0.14067589 0.17055541 0.16276613
0.009431831 0.28106758 -0.2911177 0.13138498 0.30814713 -0.37975723 0.13997474 0.24176817
-0.15441819 0.34144697 0.14200449 -0.1897678 -0.04926565 0.19532144 -0.4168745 -0.027588194
0.032426782 -0.7128803 0.1026853 0.09082578 -0.48743778 -0.012065611 -0.05516935 -0.1451418
-0.23520216 -0.008711223 0.23603775 -0.12323725 0.03820598 0.18113463 0.099682346 0.12932733
-0.08500496 0.08170219 -0.046826255 0.057290472 0.010886902 0.12939778 0.032495245 0.14610143
0.04280169 -0.03656409 -0.015156206 -0.5410274 0.10649644 -0.13381697 -0.27829307 0.06278103
0.18300901 0.14938946 -0.22675326 -0.034377072 0.31684905 0.005824162 0.015420158 0.24592397
-0.29013443 0.24377225 0.038927283 -0.47475857 0.21854486 0.15654975 -0.39680913 0.02816945
0.17081194 -0.19695713 0.14836985 -0.10958443 0.19675961 0.1248961 -0.23103137 -0.18367039
0.13807231 -0.42924616 -0.11513112 0.33177736 -0.32681975 0.29849648 0.26672575 -0.7811651
0.28579098 0.15206823 -0.5481201 -0.050217215 0.1277491 0.04500452 -0.3934354 0.025303558
-0.11815042 -0.26544663 -0.09054644 -0.08808721 0.08091714 -0.07627754 -0.4355323 0.24794842
0.064751625 -0.59246427 0.3455687 0.34620976 -0.29804608 0.21573453 0.0987743 0.29146934
0.029133126 -0.08578524 0.16993071 0.14881717 -0.21815982 -0.17610176 0.17657018 -0.031255107
0.014994022 0.056253567 -0.028289594 -0.011885388 0.04092196 0.04374153 0.026611391 0.061215635
-0.07477166 0.2325341 -0.2923665 -0.03118479 0.12633856 -0.33008045 0.012528348 0.23195305
0.1031183 -0.1807812 -0.29317206 -1.1587524 -0.11711717 -0.3659512 -1.7358123 -0.06183605
-0.04243608 -1.0715928 -0.19398093 -0.13696238 0.053248893 -0.30097705 -0.15764259 0.18726844
-0.20073901 0.109599784 0.32265574 0.36502305 0.04651597 0.0055528292 0.26644415 -0.050905775
0.006107104 0.1383544 0.03698432 -0.0623386 0.06978561 0.047618173 0.033440065 0.081903115
0.08249372 0.085580766 0.099132404 0.25276738 0.11276073 -0.11246577 -0.056515936 -0.19248131
0.12029926 -0.116163954 -0.19454068 0.2853449 0.084288456 -0.201328 -0.16170229 -0.013834105
-0.5741079 -0.044642422 -0.26127723 -0.74944496 0.09211884 0.09157359 0.1803057 0.206907
-0.18200219 -0.18026273 0.37418684 -0.25884143 -0.19430304 0.038495854 -0.27433875 0.043033466
0.07979886 0.12024673 0.21961795 0.24407946 -0.06088221 0.19011864 0.14275509 0.07930533
0.17904831 0.20417494 0.147604 -0.0052013304 0.25734314 0.031115169 -0.09651549 0.4062159
0.10186872 -0.2864679 0.22810374 -0.33499143 -0.21515353 -0.2632498 -0.5326224 -0.033976845
-0.002696358 -0.2880945 0.20629153 -0.33275688 -0.020818729 -0.1774304 -0.35083658 -0.07117285
-0.07081833 -0.09599085 0.09200443 0.01791395 -0.1998705 -0.5633055 -0.48156157 -0.21209754

cnn.2.bias f4 [32]
00000000: 59b3 263e 5835 3cbd 425b ef3e 464e 9c3e
00000010: 4cd8 46bd c36c d33e e70f 323f 4d8b 33bd
00000020: 2868 c43c 9e38 4f3e 1710 5a3e 8bbb 123d
00000030: 3e10 7e3e b044 343e 8afc 41ba 5dc1 af3e
00000040: b6b4 a43e 6cad 0f3e 8930 f33d 42c6 94bd
00000050: d5ad aa3e 7699 213e a2d9 8b3e 2b34 d13e
00000060: f185 c83e 8833 a93d 1d96 293f d127 ed3e
00000070: 278c ba3e 3b75 1e3d 1c0d 8b3d b860 a33e
0.16279353 -0.04594931 0.46749312 0.30528468 -0.04854612 0.41293916 0.69555515 -0.04383402
0.023975447 0.20236441 0.212952 0.035823386 0.24810883 0.17604327 -0.0007399997 0.34327212
0.32169122 0.14030999 0.11874492 -0.07264377 0.33335748 0.15781197 0.27314478 0.40860114
0.3916469 0.08261782 0.6624468 0.4631944 0.36435053 0.03868602 0.0678961 0.31909728

cnn.4.weight f4 [32, 32, 3, 3]
00000000: f295 95bd 29a2 453d 715d 20bf 7974 39bc
00000010: 0df8 873e f98b 45bf dcfb 3a3e 297b c03d
00000020: 5112 b2be 7236 a9bd e909 853c e245 e03e
00000030: 8bcf 013c 1cdb 8c3d 3e81 9f3e fe69 093e
00000040: a4b5 943d e477 893b b514 5cbe fcfb b6be
00000050: 9437 553e afba b7bd bd7e e6be 530e bbbe
00000060: 4ddb 023e 2b4e a63d a5e5 b6bd 7d88 a73c
00000070: fdfe 23bd a31d ccbe a6c4 733e 8169 85bd
00000080: 791b c4be 2e86 033f 2b26 7cbd 71a0 96be
00000090: 5b97 ef3e c351 cd3d 1b41 2c3e 1949 f13b
000000a0: c0a7 9cbe 7459 163e 5f88 0f3c 4f5b 5cbe
000000b0: 52fe 9d3c 6d42 823e 8ccd 383e 39c2 02be
000000c0: 0701 30bd cee0 69bc 4dc2 0abf 7321 e9bd
000000d0: 6a93 8fbd 0b3a 6a3e 8aa2 0b3f 37e6 26be
000000e0: eaf9 e93e 6687 ab3e f692 373e eaf4 563e
000000f0: f1f8 923e 5998 053f 9459 783e 277f 883c
00000100: d7c1 693d a7d0 19bc 9247 a13d 9396 bb3d
00000110: a4d8 003d cf4a 7c3b 2a3a 9b3d 760a 3f3d
00000120: eb32 b93e de81 cc3e faee 7e3f 38a2 81bd
00000130: edbd 53bc fa6d 953e d9d6 cd3d 9ce5 713d
00000140: 13f1 483e 10be 023d 8bc1 00bf 8a08 563d
00000150: ce51 3bbe 9b76 21be 8748 8d3e 2699 a73c
00000160: 43d0 2f3f fcf1 ce3e e410 b43e f4cb f9ba
00000170: 12c9 24be 9b97 a23d 2abf 03be 7ae1 82be
00000180: d78b 833e 29a4 93bc da66 ebbd 65a2 2c3c
00000190: a688 c3be 8d41 3ebe 6284 a9be b21f 2fbf
000001a0: ca6e d2bc dd03 15bf 7d63 e63c ec60 0b3f
000001b0: df8c 473e 63ec 8bbe f7d5 d9bd 5ce8 79bf
000001c0: 6fba 39bf d5fe 0fbe 5c4d b9be 6af1 133d
000001d0: a6f2 ab3e bc07 9e3e dfc5 623e eb3d 303e
000001e0: 0037 863e 6047 2f3e 278e 91bd 94a8 873e
000001f0: 4291 433e 1e18 25be 6b82 ccbd 052e 83be
00000200: fee4 3cbf 6c27 a43c 97c2 ba3d 58a4 04bf
00000210: efd0 003e 64a6 a43d b69f bdbd a8a0 2bbd
00000220: 7490 b5be 20e4 00bf 0ab0 033e 6715 e2bc
00000230: 9f5c 77be 3fd9 1d3e 1cf8 a03e a996 9dbe
00000240: 99d1 61bc bbac 71bd 38a5 7cbe 8dd4 fb3d
00000250: 593d 2fbe 7f26 41be 4121 6d3e e67a c13d
00000260: 5993 1fbd 4aab 7e3d 4ef6 4c3e 0d4a eebe
00000270: f967 4e3e 2794 cd3d 13cf 83be 7b09 523e
00000280: c005 66bc 970f be3d 8a81 1a3e bc3c b93c
00000290: b9fd a63d e07f 503e db07 b43d 2f25 073d
000002a0: 9db4 893e a36b a53e e804 82bb 00ad 45bc
000002b0: 63b7 903c 834c b23c d89f a9bc f102 a23d
000002c0: 7e71 bd3a 01e1 7d3d 55bf 2b3d a63b 253d
000002d0: adc3 93bd 8330 36be 4162 a23c 9dc5 4a3e
000002e0: 06fb 063e cfec 08be f4a5 3dba f0ec 493d
000002f0: 594d 64be ea57 143f d182 e1be df6d 793e
00000300: 864e 8b3e bb89 8f3c 578d d93e 7fca ec3d
00000310: 875c 053e e4f1 c23b 78a0 5fbe 7d25 ee3e
00000320: b2fb 8e3d 0095 8a3d 945b 563e 1cc4 363e
00000330: 2ce7 debb 5d06 b03c 9403 973e 550c 2e3e
00000340: a7a0 743d 351b 993e f15a c13c 0690 653e
00000350: 88cf 383d 35ed 983d 5f9e 1c3e 2960 8ebe
00000360: cd48 a53e a699 f6bd 00e7 cdbe 2e8d 823d
00000370: a460 10bd 0c53 52bf b76b 0f3e eb2f aa3c
00000380: cff3 7bbe 7e3d 8b3e 8c6e 40be 3917 efbe
00000390: 9143 a53e 3697 833e 18e5 e63d b518 2e3e
000003a0: 5cbd 343d 672d 3e3e d6de 8abe 6312 e23e
000003b0: 26f7 733e 69cd f63d 092c 9b3e c082 383e
000003c0: 769b 56bd c78a 91bd 27b2 42be cf02 e13e
000003d0: 2d53 923d 5bd4 9a3c 7dbc 853e a9a9 85bd
000003e0: 1231 b2bd c5dd 97bd abeb 53be b164 4cbf
000003f0: 9ff0 113e 5cbc 8b3d 3404 bdbe 9c38 9cbd
-0.073039904 0.04825035 -0.6264258 -0.011319273 0.26556435 -0.77166706 0.18260139 0.09398491
-0.347796 -0.08262338 0.016240077 0.43803316 0.007923017 0.06877729 0.3115329 0.13419339
0.07261208 0.0041952003 -0.21492274 -0.35739124 0.20821983 -0.08971154 -0.4501857 -0.36534366
0.12778969 0.08120378 -0.0893052 0.020450825 -0.040038098 -0.3986636 0.23805484 -0.06514264
-0.3830221 0.51376617 -0.061559837 -0.29419282 0.46795163 0.100253604 0.16821711 0.0073634502
-0.30596733 0.14682561 0.008760541 -0.21519206 0.019286308 0.25441304 0.1804716 -0.12769403
-0.04296973 -0.014274789 -0.5420273 -0.11383333 -0.07010539 0.22873704 0.5454489 -0.16298757
0.45698482 0.33501738 0.17927155 0.20991865 0.28705552 0.5218559 0.24252921 0.016662193
0.057069626 -0.0093881255 0.07874979 0.09159579 0.031456605 0.0038496738 0.07579453 0.046640836
0.3617166 0.3994283 0.995834 -0.06329769 -0.0129237 0.29185468 0.100507446 0.059056863
0.19623213 0.03191954 -0.50295323 0.052254237 -0.18292925 -0.157679 0.27594396 0.020458769
0.6867716 0.40418994 0.35169137 -0.0019057975 -0.16092327 0.07939073 -0.12865892 -0.2556265
0.25692627 -0.018022614 -0.11494227 0.010536765 -0.38190192 -0.18579693 -0.33108813 -0.6840774
-0.025687594 -0.5820902 0.028123612 0.54444766 0.19487332 -0.27328786 -0.10636514 -0.9762018
-0.725501 -0.14062054 -0.36191833 0.036118902 0.33583564 0.30865276 0.22145794 0.1721112
0.26213837 0.17117071 -0.071071915 0.26495802 0.1909838 -0.16122481 -0.09985813 -0.25621048
-0.73786914 0.020038329 0.09119146 -0.5181327 0.12579702 0.08039549 -0.09258978 -0.04190126
-0.3546177 -0.5034809 0.12860122 -0.027598096 -0.24156426 0.15414904 0.31439292 -0.30779007
-0.013782882 -0.05900262 -0.24672401 0.122964 -0.17113246 -0.18862341 0.23157217 0.09447269
-0.03895888 0.062175073 0.20015833 -0.4654087 0.2015685 0.100380234 -0.25743923 0.20511429
-0.014039457 0.09280317 0.15088478 0.022611968 0.081538625 0.2036128 0.08790561 0.032994445
0.2689561 0.32308683 -0.00396787 -0.012065172 0.01766557 0.021765 -0.020706102 0.07910717
0.0014453379 0.06198216 0.041930515 0.04034009 -0.072150566 -0.17791943 0.019822242 0.19801946
0.13181695 -0.13371585 -0.0007234507 0.049298227 -0.22295131 0.57946646 -0.44045117 0.24358319
0.27208346 0.01752173 0.42490646 0.115620606 0.13023578 0.0059492458 -0.21838558 0.46512976
0.06981601 0.06766701 0.20933372 0.17848247 -0.00680246 0.02148741 0.29494917 0.16996892
0.059723523 0.2990357 0.023602935 0.22418222 0.045119792 0.07467119 0.15294789 -0.2780774
0.32282105 -0.12041025 -0.40215302 0.06374584 -0.035248414 -0.8215797 0.14005934 0.020774802
-0.24604724 0.27195352 -0.1879217 -0.46697405 0.32278112 0.25701302 0.11274165 0.17001612
0.0441259 0.18572007 -0.27123135 0.44154653 0.23824748 0.12050898 0.30307034 0.18018627
-0.052394353 -0.07106548 -0.19013272 0.43947455 0.07144771 0.018900087 0.26120368 -0.06526501
-0.08700766 -0.07415346 -0.20695369 -0.7984114 0.14251946 0.06823036 -0.3691727 -0.07627985

cnn.4.bias f4 [32]
00000000: f057 d6be e562 b13d 02eb 22be 2ca0 833e
00000010: 7cf1 453e a47b ff3e 2b55 e33e b6ca 9bbd
00000020: 34d9 0abc 9a86 963d 6086 61bd a7ec 0abe
00000030: fa6e 81be a410 34be bf46 3ebe 5256 223f
00000040: 2fe5 263e e23e 93bc 8226 003f 3e7b a6be
00000050: 7a45 b23e f624 06bf 8ec8 133e 7c56 bd3c
00000060: 8f3e 5b3f 13b1 fbbc a13a 963d afcc 373f
00000070: e48d f23e 4cfe 45be 1086 afbd d56a c13e
-0.41863966 0.08661441 -0.15909961 0.2570814 0.193304 0.49899018 0.44400916 -0.076070234
-0.008474637 0.07349892 -0.05505979 -0.13566838 -0.2527998 -0.17584473 -0.18581675 0.63412964
0.16298364 -0.01797432 0.5005876 -0.325159 0.3481863 -0.5240015 0.14431974 0.023112528
0.8564233 -0.030724084 0.07335401 0.717967 0.4737388 -0.19335288 -0.08570492 0.3777682

cnn.6.weight f4 [32, 32, 3, 3]
00000000: d39a 7d3d ecd2 92bd 3274 30be 80e9 ed3d
00000010: ba70 b8bc 842c be3d d331 fe3c 22e9 3e3c
00000020: d99d 343e 87c7 b03e f18c 7a3e 9d02 1e3e
00000030: 11ad 0a3e ea0e 16be f6d7 e7bd 5684 cebd
00000040: 6c72 3e3d 3b9b d5be 80fb 883e fc7f d3bc
00000050: ccbe b63e 2e7d e53d 9914 f53c 5407 123e
00000060: 58ec 393e 0f33 443e 031f 463e 1254 9ebc
00000070: ceaa 4abe bdaa 14be 2283 ca3d c51c 1b3e
00000080: 1721 a6be e701 ca3c fb34 b43d 76b8 26be
00000090: 6023 64be dc4e ae3d 26f3 013e a4a4 c1bd
000000a0: d444 ba3c 6bcb bd3d 751b 8a3e 94c9 193e
000000b0: 38ce b03e 2a40 7fbd 5d6f 5fbe 9ddd 09be
000000c0: 0798 5abe 1167 d13d 0803 94bd f6e8 24be
000000d0: 7899 393e f5c0 eb3b b84d 02bf 1fad 65be
000000e0: 1325 98be 8c55 66bf ad0d 48bf e0f7 08bf
000000f0: e960 293d d68f 11bf bf1a c1be 95d9 38be
00000100: b93f debd 7b6a 143e 6891 1abe e3cf 7fbc
00000110: 86cf 713e 0591 eabd 40b4 44be 1002 d63e
00000120: 637b 43be 7251 32be c7ce 00bf c99c cf3c
00000130: 6524 a9bd 50e9 18be 7623 85be d17e 8dbe
00000140: 8716 c6be 282a fe3d b110 4abe ee07 813e
00000150: f552 813e 4cfb 683e 24d8 ef3e a818 b73c
00000160: 9dc8 133e 644d 09be 34a6 9a3e e1f8 bf3d
00000170: 9b2f 46be 5e4d 823e 996c 513e 4991 a1be
00000180: 9dd3 973e 0091 63bb 4aaf 84be 62ac 183e
00000190: 5f41 0e3f 4ca1 dd3e 39b4 693e 7b2c 593e
000001a0: 5ab8 2bbd 066f 023f 5e1b 7ebe d630 cc3c
000001b0: e77e bd3d c052 a4bb ac59 c3bd d3ce 283e
000001c0: 6c7b de3c 4180 0bbd 70ff d7bc cadf 11bd
000001d0: 1a8c cb3e 3095 5e3e b1d6 fb3d 6448 a83d
000001e0: dc68 193d a169 6b3c 9667 c1bd d6f0 073e
000001f0: 8d29 333d 0cd1 1cbe 2164 1f3e b789 cd3d
00000200: 2a26 193e b927 b43d b1ba 2c3e 7d88 fc3d
00000210: 162b 2bbe f580 c9bc 231d 2d3e 8441 da3e
00000220: 2f90 f33b 2bc7 bebe e74d 1d3e f277 84bd
00000230: 078e 35bc 9df1 d43d 67a6 b73e 3c8d 593e
00000240: 3cd1 ca3e 7ac3 883d feda 7d3b 8dbd 9c3d
00000250: 1381 9e3d 300a 9dbd 3423 9ebd d1e9 62bc
00000260: ccf5 8ebd c5b4 94be 9ac1 303e b7c8 26be
00000270: 9af4 dcbe 3b5b 22bd f618 10bf 2c39 53be
00000280: a57d b3be 506e f8be b61d b23c 804f 1a3d
00000290: bee6 b3be ccee 823d 2dc8 8dbd 5f83 a3bc
000002a0: b453 4c3c b133 4b3e f2a8 11be 11c0 183e
000002b0: 6fc2 7e3e 6341 383e cf93 ac3d c67d 383e
000002c0: d92d cf3b e52f 8d3e adb9 88bd 5713 18bf
000002d0: ad37 1bbe 1e16 16be e34d 303e a6fd 89bd
000002e0: 4935 fdba a629 f6bd 9dae 88bd 84e0 0d3d
000002f0: ac5c 90bd f353 d13d 2c61 d2bd cf3e 51be
00000300: 488c 023e 614e a03c 4968 61be a3a1 343e
00000310: 8cf4 f63d 45be bbbe f7e6 273c f155 d9bd
00000320: 8e65 0abf 95ad 6bbd ada7 bbbd 7981 9fbd
00000330: f76a 103e 27f5 bbbd 763e 6f3e 6417 27be
00000340: faa3 41be 60ad 3dbe 98f9 ff3d 1d7d 663e
00000350: 6644 65bd 5702 bc3e 9524 ad3e 78ab 653e
00000360: d333 ecbc 6099 71be 91cb 14bc a225 5fbf
00000370: 0f4e 91be aa1e c5be 89a4 c3be 42ed 6dbd
00000380: 3860 c9be e26a 863e c0af 8f3e 6ad5 92bb
00000390: bacf bd3e 3635 1f3e c7e1 6e3e 8f95 563e
000003a0: 0b92 20be 4a8f 2a3e 48a6 45be 16a6 233e
000003b0: 2b1f 0e3e 1062 82be 2a7d 3e3e 69bb 033e
000003c0: 4269 0c3e 97c4 793e a6ef 3fbb efef 463d
000003d0: 99e8 7a3e dff6 aebe e5be b4bc 1a1d d43e
000003e0: c77d 84be a25c 07be 01e5 6f3e 52cf e3be
000003f0: 8870 c13b 2b52 ab3d 29df febd 0d6c 163e
0.06191523 -0.071691364 -0.17231825 0.11616802 -0.02251469 0.092858344 0.031029617 0.011652263
0.17638339 0.34527227 0.24467827 0.15430684 0.13542582 -0.14654127 -0.11320488 -0.10083835
0.04649584 -0.41719994 0.2675438 -0.025817864 0.3569244 0.11205517 0.029917048 0.14260608
0.18156564 0.19160102 0.19347768 -0.019327197 -0.1979172 -0.14518256 0.09888293 0.15147693
-0.3244712 0.02465911 0.08799168 -0.16281304 -0.2227912 0.08511135 0.1269041 -0.09455231
0.022737898 0.092673145 0.26974073 0.15018302 0.34532332 -0.06231705 -0.21819825 -0.13463445
-0.21347056 0.102247365 -0.07227141 -0.16104493 0.1812495 0.007194633 -0.5089984 -0.22429322
-0.29715785 -0.89974284 -0.7814587 -0.5350323 0.041352186 -0.568601 -0.37715718 -0.18051751
-0.10851998 0.14493744 -0.1509453 -0.015613529 0.2361432 -0.114534415 -0.19209385 0.4179845
-0.19090037 -0.17413881 -0.5031552 0.025343316 -0.08258895 -0.14932752 -0.26003617 -0.27635816
-0.38689062 0.124103844 -0.1973293 0.25201362 0.25258604 0.22752112 0.4684459 0.022350624
0.14431997 -0.13408428 0.30204928 0.09373642 -0.19354098 0.2544965 0.20451583 -0.31556156
0.29653636 -0.0034723878 -0.25914985 0.14909509 0.555685 0.43287122 0.22822656 0.21208374
-0.04192386 0.5095066 -0.24815127 0.02492563 0.0925272 -0.0050147474 -0.09538588 0.16485147
0.027158462 -0.03405786 -0.02636692 -0.035613813 0.39755327 0.21736598 0.122968085 0.082169324
0.037453517 0.014368446 -0.094435856 0.13275465 0.043740798 -0.1531412 0.1556554 0.10036033
0.14955965 0.08796639 0.16868092 0.123307206 -0.16715655 -0.024597624 0.16905646 0.4262811
0.0074329595 -0.37261328 0.15361749 -0.0646819 -0.011081225 0.103976466 0.35869142 0.21245283
0.39612758 0.06677909 0.0038735266 0.076533414 0.07739463 -0.07667959 -0.07721558 -0.0138496915
-0.06980476 -0.29044166 0.17261353 -0.16287504 -0.43155366 -0.039637785 -0.5628809 -0.20627278
-0.35056797 -0.48521662 0.021742683 0.037673473 -0.3513698 0.06393203 -0.06922946 -0.019960104
0.012471128 0.19843937 -0.14224604 0.14917018 0.24878858 0.17993693 0.0842663 0.18016729
0.006322604 0.27575603 -0.0667604 -0.5940451 -0.15157957 -0.14656875 0.17217211 -0.06737833
-0.0019318248 -0.120196626 -0.0667393 0.034637943 -0.07048926 0.1022109 -0.1027244 -0.20434116
0.12748826 0.019568624 -0.22012438 0.17639785 0.12058362 -0.36668602 0.010247937 -0.10612095
-0.5406121 -0.057538588 -0.09162841 -0.07788367 0.14103304 -0.091776185 0.2336367 -0.16317517
-0.18910208 -0.18523169 0.12498778 0.22508664 -0.055973433 0.36720535 0.33816972 0.22428691
-0.028833305 -0.23593664 -0.009081737 -0.871668 -0.28379866 -0.38499957 -0.38211468 -0.058087595
-0.39331222 0.2625342 0.28063774 -0.0044810073 0.37072545 0.15547642 0.23328315 0.2095549
-0.15680711 0.16656223 -0.19301713 0.15981326 0.13879077 -0.2546544 0.18602434 0.1286446
0.13712028 0.243914 -0.0029287129 0.048568662 0.24502791 -0.34172723 -0.022063682 0.41428453
-0.2587721 -0.1321893 0.23427202 -0.4449411 0.0059033073 0.08365282 -0.12444908 0.14689656

cnn.6.bias f4 [32]
00000000: 8205 e1be 09d9 b23e bd2c 123f 576c d83e
00000010: eed3 113f d0c6 863e e4d7 a03e e3b3 123d
00000020: 72b7 393e ad8c 6ebd db56 543e fd2c 0a3c
00000030: e262 d23e 1704 9abb 5d63 813f ba6b 8dbc
00000040: 7a9f 6d3d 9082 243e 34c3 513e 69f6 33ba
00000050: 5735 333e fedd a63e 5824 a43e f229 753c
00000060: b180 913e ea57 42be a965 cc3e 6b75 33bd
00000070: 75ea c93e 502e aa3d 76ce 8b3e c357 04be
-0.43949515 0.3493121 0.57099515 0.42270157 0.56964004 0.26323557 0.3141471 0.035816085
0.18136385 -0.058239628 0.20736258 0.008433578 0.41091067 -0.0047001946 1.0108448 -0.017263282
0.058013417 0.1606543 0.2048462 -0.0006865026 0.17500816 0.32591242 0.32058978 0.014963614
0.28418496 -0.18978849 0.3992131 -0.04381315 0.3943669 0.08309615 0.27305955 -0.12924103

rnn_cell.weight_ih f4 [32, 32]
00000000: a263 cd3c 7bea ffbd 982a 9ebc 5922 49bf
00000010: e14d 8dbd 553d 5fbe 3d85 7dbf d929 c4be
00000020: c524 7d3d d90d cf3d f03d 0bbe 4593 5f3e
00000030: 5190 a23c 71b6 8abd 32a4 19bf 8221 403e
00000040: 212d 323f a3c8 86bf 92e0 52bf f4c7 05be
00000050: f93b eb3b 2f9a 823d b2bd db3d 8029 b0bd
00000060: 7abf dbbd ffd6 54bd 7dee 14be c0e2 38bf
00000070: 5b7f 37bd aca2 4cbd 603e 8dbd 2465 8bbe
00000080: 2810 a1bd db4d a43e abab 69be 3be7 3b3f
00000090: c326 f6bd 2a16 3e3e 91ab e63e 2b59 05be
000000a0: 497e 2b3e 20db adbe c5b2 3f3e bcca 503e
000000b0: 1db6 c13e 2fff e7ba 442b 18bf e289 ee39
000000c0: 260d 2b3e 1cce 093e 7ca9 a2be b933 ad3d
000000d0: b5e4 8abe 4eac b13e 559c 92be a853 5bbe
000000e0: ba66 3dbe 767d 7abe 329d 1ebe f307 95be
000000f0: 7ada 2c3f 90b9 2dbe 6717 f6be ae55 f1bd
00000100: f4f0 e63e c96b c73d 9b5d cabe 4a3c d3bd
00000110: e67a 043e 0690 a23e de75 00bf dd00 73be
00000120: 77ac 6ebd adcc bc3e 2ada 6b3e 48c9 07be
00000130: fb6a 7bbe 0280 c53e ef01 643e 96d2 edbe
00000140: f153 91be 85d1 f2be 98c7 bcbd e0d7 65be
00000150: 82c1 4bbe e96c 79be c08c a5be cd5b d93e
00000160: c95d 20bf ec2b febd 17ab 9e3d 6014 8fbf
00000170: c35e 1e3e a14e 503e d587 9bbe 36d7 ef3d
00000180: 373b 36be 81bf 7fbf 2718 96bd dc49 80bc
00000190: 99db 93be 5d2e 203f 4ec9 38bf 00fd 42be
000001a0: 9ee9 a43e 58fe e9bd d4d0 fdbe 9c7b b6be
000001b0: 6507 84bd e8b5 dd3e 2a4a 27bf 8a16 23be
000001c0: df3d ce3d a703 fabd be36 1dbf a97d bcbd
000001d0: bc74 333e 1723 d4bd db1c 32bd 448b 0bbe
000001e0: 9213 d3bd 9370 b63e d4bd f33e eb2b 77bf
000001f0: 22ea 93be 93b3 c6bd 8b32 573e a62d 363d
00000200: 77b4 b73e 9441 6f3f 08f1 fd3d 1618 a03f
00000210: 9395 d5be 2447 7fbe 37fe 74bf b88b cc3e
00000220: 8d5b ba3e aeb8 1f3f 5a27 c1bb d468 cb3e
00000230: 2dae 073e 51c4 bdbd 5937 813f e2b5 dd3e
00000240: be4d a1be 1bc6 b2bd 9e9d a23d 6795 203f
00000250: 9f30 2cbe 8345 1ebe 3a73 63bd 8e5e b3be
00000260: 75d5 abbd a2a5 033c 5123 6b3e dac1 bcbe
00000270: ed09 b93e 3fbf 2a3d fe65 e83e 0174 9dbd
00000280: 0cac 98be bd71 9b3e 5501 423e 7c31 683e
00000290: d905 e2be 837f a2be 6e49 a33e 6a7f 163e
000002a0: 5bff 493e eaaa 1d3e f720 e1bd c57d 1f3e
000002b0: ced8 97bd 0e9d cdbd 315c 2b3e 999b 9c3e
000002c0: 6e03 07be f598 e93d 246e a43e 1e44 2b3f
000002d0: 8581 203f 5b5b a9be 3df3 89be 157a 1f3f
000002e0: 80a2 7dbd 7456 edbe 862b 19bd c795 9e3e
000002f0: 5881 453d d654 a53e 3f0a 8bbd 9c94 06be
00000300: 0726 1fbe 8f7e 85be a6b8 863d c6db 2ebb
00000310: 92e9 50be 016d 4a3e d84b 1d3f be2c 1d3e
00000320: aed2 86be daa6 bf3e c72c 80be 3eda b4bd
00000330: b1b5 c9be 5052 37be e787 85bd f504 7fbe
00000340: 6fcb f4be 95d0 00bf 4b19 6fbe 85c6 413d
00000350: af0c a2be 8fec 3abe 5b43 3bbe 73ef 4cbd
00000360: 6e9c 773e 88b2 e83e e224 c4bd eb26 8e3e
00000370: 5475 45bf 0168 a0be 9f83 e13d 8c88 313e
00000380: 8407 ae3e a1de ec3e 548a 563e 4e82 123f
00000390: c2b5 eb3e 1d99 d4be 34a0 96bf cc61 42be
000003a0: 9eaf d0bd a668 833d a622 b83d 6bb2 8cbe
000003b0: d9ce 8e3e 4caf adbb 0ce5 0b3f b04a b33e
000003c0: 0bb0 153e f835 72be a08c 463e 93e9 853e
000003d0: e9f3 833d 9eb0 09bf 73d3 75be b0b9 c83e
000003e0: 7631 0ebf c958 643d dc5c 2bbe 29fb cb3d
000003f0: 5bb8 04bd 49c5 54bd 9c87 16bd baa7 64bf
0.025071923 -0.124958955 -0.01930742 -0.78568035 -0.0689962 -0.2180074 -0.9903143 -0.38313177
0.061802644 0.10110063 -0.13597846 0.21833523 0.019844206 -0.06773079 -0.6001617 0.18762782
0.6960011 -1.052998 -0.8237392 -0.13064557 0.00717878 0.063770644 0.10729541 -0.086016655
-0.10729881 -0.05196285 -0.14544101 -0.72220993 -0.04479919 -0.049959823 -0.06896663 -0.27225602
-0.0786441 0.3209065 -0.22819392 0.73399705 -0.12019112 0.18563142 0.4505277 -0.13022296
0.16747393 -0.33956242 0.18720539 0.20389837 0.37834254 -0.0017699952 -0.5944102 0.00045497628
0.16704234 0.1345753 -0.3176993 0.08457131 -0.27127615 0.3470177 -0.28634897 -0.21418631
-0.18496218 -0.24461922 -0.15489653 -0.29107627 0.6752087 -0.16965318 -0.4806473 -0.1178392
0.45105708 0.09737355 -0.3952454 -0.103142336 0.12937507 0.31750506 -0.5017985 -0.23730798
-0.058269944 0.36874905 0.23032442 -0.13260376 -0.24552529 0.38574225 0.22266363 -0.46449727
-0.28384355 -0.47425476 -0.09217757 -0.22445631 -0.19898036 -0.24357952 -0.32333946 0.4245285
-0.62643105 -0.12410721 0.077474765 -1.1178093 0.15465836 0.20342495 -0.3037707 0.1171097
-0.17796026 -0.99901587 -0.073288254 -0.015660219 -0.28878477 0.62570745 -0.72182167 -0.19041824
0.32209486 -0.11425465 -0.49573386 -0.3564118 -0.06446723 0.43302846 -0.6534754 -0.15926567
0.10070395 -0.12207728 -0.61411655 -0.09203655 0.17525 -0.10358255 -0.04348455 -0.13627344
-0.10306467 0.35632762 0.47605765 -0.9655139 -0.28889567 -0.0970222 0.21015374 0.044477127
0.3587987 0.9345944 0.12399489 1.250735 -0.4171568 -0.24929482 -0.957004 0.39950347
0.36397973 0.62391174 -0.0058945836 0.39728415 0.13250037 -0.0926596 1.0095016 0.43302828
-0.31504625 -0.08729192 0.07940219 0.6272797 -0.16815422 -0.15456204 -0.05552981 -0.35033077
-0.08390323 0.008035095 0.22962691 -0.36866647 0.36140385 0.041686293 0.45390314 -0.076881416
-0.2981876 0.30360213 0.1894582 0.22675127 -0.44145086 -0.3173791 0.3189196 0.14697042
0.19726317 0.1539723 -0.10992616 0.15575321 -0.07414399 -0.100397214 0.16734387 0.30587462
-0.13184902 0.11406127 0.3211528 0.66900814 0.6269763 -0.3307751 -0.2694339 0.6229566
-0.06192255 -0.4635502 -0.037395023 0.30973646 0.048219055 0.32291287 -0.06789064 -0.13142627
-0.1554185 -0.2607312 0.06578188 -0.0026681288 -0.204016 0.19768144 0.61443853 0.15349099
-0.2633261 0.37431985 -0.25034162 -0.08830689 -0.39396432 -0.17902493 -0.06520062 -0.24904235
-0.47811458 -0.5031827 -0.23349492 0.047308464 -0.31650302 -0.18254302 -0.18287413 -0.050033044
0.24180767 0.4544871 -0.09577347 0.27764067 -0.77132154 -0.3132935 0.11011433 0.17337245
0.3399011 0.46263602 0.20951205 0.5723008 0.46037108 -0.41523066 -1.176764 -0.18982619
-0.10189746 0.064164445 0.08990984 -0.27479872 0.27892187 -0.005300438 0.5464637 0.3501792
0.14617936 -0.236534 0.19389582 0.26154765 0.064430065 -0.5378512 -0.24006443 0.39204168
-0.5554422 0.055748735 -0.16734642 0.099600144 -0.032402378 -0.05194596 -0.03675042 -0.8931843

rnn_cell.bias_ih f4 [32]
00000000: e01f 8b3d f881 9abd ed22 febb ebb1 44bd
00000010: 750b 3a3e 8051 ce3e fd34 2bbd 5e9c 51bd
00000020: 6988 95be 1c30 c53d ad7b dd3c 08dc 47be
00000030: 69ad 21be 0fb8 14be 8bb4 f73d 7dfd 38be
00000040: 5b7f cbbd 8414 f63d ca20 bc3e 6496 3e3e
00000050: 7d41 713a 827a 613e 70cf 52bd 181a e23c
00000060: e6e7 99be 188c b83d a5ad 9cbd 483a 533e
00000070: 4f98 9d3e 65ab b03e 45cc cabd 37a8 a9be
0.06793189 -0.07544321 -0.0077556283 -0.04802124 0.18168433 0.40296555 -0.04179858 -0.051174514
-0.29205635 0.09628317 0.027036512 -0.19517529 -0.15788807 -0.14523338 0.12094983 -0.18065448
-0.099364005 0.12015632 0.36743766 0.18612057 0.0009203179 0.2201939 -0.05146736 0.027600333
-0.30059737 0.09011096 -0.076503076 0.20627701 0.30780265 0.34505764 -0.099022426 -0.3313615

rnn_cell.weight_hh f4 [32, 32]
00000000: d139 eb3e a6f4 c3bf b866 0e3d 62da 97bf
00000010: 8ab5 9ebe a20d 8fbd 99bc 36bf 6381 8dbe
00000020: 9991 15be 4995 783e 8cfc 0cbe 6ef7 49be
00000030: f126 b0bd ade3 af3d 4a09 00bf a173 083e
00000040: 7a05 69be 4ffb edbe 8584 70bf eefb aabd
00000050: b606 d8bd b888 57bd 4d37 13bd 8bb6 84be
00000060: 0c02 b33d f118 853d bc92 4ebd 2767 6cbf
00000070: 668c 94bf 6b24 3e3d 3299 043e bd0c 54be
00000080: 5694 103d e2ec 943e bc53 14be 9c7c 363f
00000090: d831 af3c a963 373d b959 bc3e 1758 a83d
000000a0: f86c 173e aa98 3f3e 3e6c c53b f2d6 efbd
000000b0: c7cc 39be 547e 1e3e 83b7 db3e 2edd 08be
000000c0: 90d3 233b ed75 cdbe 995b 953e 74a3 1d3e
000000d0: 5083 49bf 5d2b ecbc 420b c6bd a7c8 3fbe
000000e0: 053f 403e 4a22 b53e df8b a13d d3ef 0f3f
000000f0: 3bb5 2a3f 8868 12be d329 e3bc 9a97 a63e
00000100: 8de3 7abd cd4b 1cbf 3671 bd3e 8ee1 4ebf
00000110: 16e6 92be b3bd 873d d035 febe d05e 0abd
00000120: eb12 fd3d a6f1 e4be e673 5d3c 161b a2bd
00000130: ef49 333e 9a67 41be 7d40 bcbe 84c4 da3d
00000140: 06f1 98be 96ac 64bd 6bb2 853e 9408 fabd
00000150: b96c 19be 6ee8 a4bd 16f4 ef3d a570 1a3e
00000160: 3203 243e 96c3 33bd 933e 0fbd 92b5 11bf
00000170: 8b72 08be cd31 46be a36d 74be 6269 82be
00000180: ac6f 223e 3651 bb3e abd7 55be cab7 043f
00000190: 8df7 23bc 58c9 bd3d 2205 1d3e c9b6 17bd
000001a0: dc7d ff3d fb94 b43d 89fc b13d 568b e63d
000001b0: 0661 c2be 5676 333e 1e73 d43e 91f2 8cbd
000001c0: 29d9 3fbe e4e2 a1be edf1 283c 4bd4 1cbe
000001d0: 8206 7abf 1bde 813e 5f28 2abe ce74 a7be
000001e0: eece a53d 78c3 f33e 7a8d 0b3e 008d 4e3f
000001f0: 3aed 0e3f fae7 cbbd fcff 8f3d 2d57 553e
00000200: 601a 063f 23be 8cbf 8e9b cd3e d48a eebf
00000210: 58b1 fd3e d080 b3be 16e8 95bf b3c0 32bc
00000220: 5ecd 79be d968 56bd a97b 883d 3829 8cbd
00000230: 02be 86be f783 973e 546f 22be 523d d53e
00000240: 6347 c2be 1a7b 97bf fda0 57bf f4ae 2abe
00000250: e046 27be 704e 73be a84d db3e 3c65 3fbe
00000260: b733 cc3d 4ddb 073f 8eab 03be 4b3d b4bf
00000270: 661d 8bbf 081f 873e 1012 933e 7c05 5e3e
00000280: b472 c23d 6889 bcbe d566 0b3f 6af0 29bf
00000290: d236 ef3d 41d7 a9be 7fb8 a9bf ac15 0cbd
000002a0: 4209 4ebe 523d 9cbc 1594 d6be 418c 173f
000002b0: 39e8 b93d 37de 193e aa93 a1bf fa61 bfbd
000002c0: 773b 9c3e 1bdb f3be f3ea e9be d9e9 a23e
000002d0: db3c d5be 1957 85be 10ea 003e 1c20 8a3d
000002e0: 1df6 e6be 13e9 033f b8be cdbe bbc5 57bf
000002f0: 4a2a 5fbe 8514 a73e f822 063f e560 2bbf
00000300: a092 053e 47e3 fd3e 10c4 91bd 27c3 753f
00000310: f841 acbc 7696 5d3e dbdc c83e 4f87 cd3d
00000320: b7cb 953d 7866 a83d db28 863e 3f29 89be
00000330: 4fa0 7d3d 9d96 41bd 33e2 043f 5a5b a53d
00000340: d30b d9bd 2d35 1c3f b358 cf3e 8907 613c
00000350: e2ac 47bf 153f fa3d 859e 64be d648 52be
00000360: 33e3 973e 16eb 133d 6824 703e 1e69 943f
00000370: d5e7 763f 19ec 25bd 0252 ce3c 6766 993e
00000380: 9b39 053d 1603 35bf a74c 783e 5416 7abf
00000390: c83b 10bf f9ba 433d f018 1ebf f8ae 81bd
000003a0: 2ff2 89bd 4c45 bb3d d588 333e 36ff 9b3d
000003b0: f2a1 e2bd c6da 843e d12a b0be ebb8 903e
000003c0: 20aa eebe cc7a 79bf 0d92 52bf 035e 85be
000003d0: c332 4abd 35ef a43d b793 203e 6e21 ca3d
000003e0: 1cf7 463e 9f2f 94be 039a 003d 2a47 6ebf
000003f0: bb98 21bf 66f2 053e 8aae 653e 98f0 88bd
0.45942548 -1.5309036 0.03476593 -1.186352 -0.30997878 -0.06985022 -0.7138153 -0.27637777
-0.14606322 0.24275698 -0.13768214 -0.19723293 -0.086011775 0.085883476 -0.50014174 0.13325359
-0.22755995 -0.46480796 -0.9395221 -0.08348833 -0.10548155 -0.05262062 -0.03594141 -0.2592052
0.08740625 0.06498898 -0.050432906 -0.923449 -1.1605346 0.04642145 0.12949064 -0.20707984
0.035297714 0.29086977 -0.14485067 0.7128389 0.021386072 0.044772778 0.36787203 0.08219927
0.14787662 0.1871058 0.0060248664 -0.117109194 -0.18144523 0.15477878 0.42913446 -0.13365623
0.0024997927 -0.40129033 0.29171446 0.15394384 -0.7871599 -0.028829271 -0.09670116 -0.18728887
0.1877404 0.35377723 0.078880064 0.5622532 0.66682786 -0.14297688 -0.027729904 0.32537538
-0.061252166 -0.6105316 0.37000436 -0.8081292 -0.28691167 0.06627979 -0.4965043 -0.033781826
0.12357124 -0.44715613 0.013516402 -0.079153225 0.17508672 -0.18887177 -0.3676795 0.10682014
-0.29871386 -0.055828653 0.26112685 -0.122086674 -0.1498288 -0.08052145 0.117164776 0.15082033
0.16016844 -0.043887697 -0.034971785 -0.5691768 -0.13324945 -0.19354935 -0.23869948 -0.25471026
0.15862912 0.36585397 -0.20883052 0.5184294 -0.010007751 0.09266919 0.1533399 -0.037039552
0.12475178 0.08817478 0.086907454 0.11257045 -0.37964648 0.1752561 0.41494077 -0.06882203
-0.18735184 -0.31618416 0.010311586 -0.15315358 -0.9766618 0.25364766 -0.16616963 -0.32706302
0.08096109 0.47610068 0.13628188 0.806839 0.5583073 -0.099563554 0.07031247 0.20834036
0.52383995 -1.0995525 0.4015774 -1.8636117 0.49549365 -0.35059214 -1.1711452 -0.010910201
-0.24394748 -0.052346084 0.06664211 -0.06843799 -0.2631684 0.2959287 -0.15862781 0.41648346
-0.3794509 -1.1834443 -0.84230024 -0.16668302 -0.1633563 -0.2376039 0.42832685 -0.18690962
0.09970801 0.53069 -0.12858412 -1.4081205 -1.0868347 0.26390862 0.28724718 0.2168178
0.09494534 -0.36823583 0.54453784 -0.6638247 0.11680378 -0.33172038 -1.3259429 -0.034200355
-0.20120719 -0.019072209 -0.41909853 0.59198385 0.09077496 0.15026174 -1.2623188 -0.093448594
0.30514118 -0.47628102 -0.45687065 0.31819037 -0.41647992 -0.26043013 0.12589288 0.067444056
-0.45109645 0.5152752 -0.4018457 -0.8428609 -0.21793476 0.32632843 0.5239711 -0.66944724
0.13044214 0.4958746 -0.07117474 0.96000904 -0.02102755 0.21639428 0.39231 0.10035574
0.07314246 0.08222669 0.26203045 -0.2678928 0.06192046 -0.047262777 0.5190765 0.080740646
-0.105979584 0.6101864 0.4049736 0.013734707 -0.77998173 0.12219063 -0.22326095 -0.20535597
0.29665527 0.036112867 0.23451388 1.1594579 0.964475 -0.040508363 0.025185589 0.2996094
0.03252564 -0.70707834 0.2424799 -0.9769032 -0.5634122 0.047785733 -0.617568 -0.06332201
-0.06735646 0.09144077 0.17532666 0.07617037 -0.11066045 0.2594816 -0.34407666 0.2826608
-0.4661417 -0.97453 -0.82254106 -0.26048288 -0.049364816 0.080534376 0.15681349 0.098696575
0.19430202 -0.28942582 0.031396877 -0.9307734 -0.63123673 0.13080749 0.22429863 -0.066865146

rnn_cell.bias_hh f4 [32]
00000000: 5d27 70bb 1ac5 163e 7b3b 863e f1d5 093d
00000010: 3843 3d3e 0c4e 763e 876d 103e 2581 1a3e
00000020: fd74 36be 9b2c b1bd 678c ec3d 7cc4 813c
00000030: 8dbb efbe 7f3e 9fbd e7c5 3b3d f755 b9bd
00000040: 37fb 4fbe 6bfe 21bc 5fe3 b63e 7f3c 823e
00000050: 5413 823d 983f 563e 05da 513d 9ee4 ee3c
00000060: 249c a7be e073 f23d 856d 10bc 399f 99bc
00000070: 937a b03e d9f3 3d3e f51c 9b3d 8cbc e0be
-0.0036644556 0.14723626 0.26217255 0.033651296 0.18482673 0.2405321 0.14104281 0.15088327
-0.17818065 -0.08651086 0.11550217 0.015840761 -0.46822777 -0.07775592 0.04584303 -0.090495996
-0.20310675 -0.009887318 0.35720345 0.2543678 0.06351343 0.20922697 0.05123331 0.029161748
-0.32736313 0.11838508 -0.008815174 -0.018752681 0.34468517 0.18550052 0.075738825 -0.4389385

fc.weight f4 [37, 32]
00000000: 4eaa 573e 5911 89bf 1063 c23f ebc8 e4be
00000010: 7e75 7a3d bd81 babf d054 18bf 2397 ebbe
00000020: bdfe 04bf 24e8 853d 9985 abbe 1b7d 6cbe
00000030: 31a9 b3bd fdbd 993e d2c8 7abf 9c71 313e
00000040: 3da4 d43e a88e 02bf 7366 35bf 45f3 a53e
00000050: db19 23bf 8546 7ebf 2b30 24be 3161 4a3f
00000060: 7069 97bd 56fa 0f3f f64c a4bf f4f8 57bf
00000070: 5fba c8be 2dfc 923e 6cf3 613f dc64 bdbf
00000080: 2da2 ed3d b43a 183e 37cb fabe cde4 173e
00000090: 983f c63e 502e e0bd 4697 1cbf 6ae5 4a3e
000000a0: 53f7 ccbc 078d 04bf 80ff 043f 436f fabf
000000b0: 495a 663e de14 97be 670b 873d c691 4fbf
000000c0: ac03 793f 27f7 913e 187b 76bf 5031 a2bf
000000d0: 4778 5bbe 1e13 173f e4b1 973f 2aba b53d
000000e0: 417a 863f b50e c8be 1b72 d7bd 5867 863f
000000f0: ae2f 863e 7985 2a3f 7fa3 ea3e 80fa 953e
00000100: 4b4b a33c cc72 a63d fa8f a13c dc47 35bf
00000110: 5c60 0d3f 3079 f7be 6f49 ac3f 1ecf bd3e
00000120: 7894 a6bf 631b b93f 9070 abbf aacc 37bf
00000130: cae1 f4bf c39b 653e cbfc 57be f217 c5bf
00000140: ffd0 ddbe f441 6b3e 1c30 6a3f ce31 46bf
00000150: 5513 80bd 1fe0 03be ae0c 85bf d3a2 843e
00000160: c2d7 bbbd c35d 3ebf 82b6 0d3e 049d 073f
00000170: 4114 bdbe 1527 64bf b4ef 87be 8c62 8c3f
00000180: f5a9 b73d b051 02bd 3212 97be 7f10 693e
00000190: fd31 77bf 3573 c33e f8c3 31be 3c89 d83e
000001a0: a9bd ae3f 1b97 b7be 9144 6dbe e9c7 673f
000001b0: 9037 fd3e 0834 8f3f 0937 9a3e f507 a13f
000001c0: 27a4 3cbe 0fe2 303e 3acb 2c3e 1e3c e83e
000001d0: 02f8 373f 5e25 643f f099 89bf 6a49 3f3f
000001e0: 98e3 edbd 5448 a03f ad23 cf3e 9b5f c9bc
000001f0: 9420 213f 14a7 60bf f554 af3e 3d99 3d3f
00000200: 9588 6a3f 53ed 0c3e 6f2a 813e 87ff 40bf
00000210: 2bd9 793f ceb5 633d dd32 8c3f 4297 51be
00000220: 31d7 cb3f 8a78 423f 0cee efbf bdca 9f3e
00000230: b548 7bbd 40d4 5dbe 4334 3b3e 1ed1 cdbe
00000240: 7ef4 693e 9dbd 3b39 68cf 923e 1d10 963e
00000250: 83ee 8c3f 7095 41be f379 693e e86d 4fbf
00000260: e7d6 d13f 9c56 633f 0b99 5e3e 43ca 0b3f
00000270: 3bba 00be 4edc 87bf fe4c a13e df5c bf3f
00000280: 5eb3 6c3e a0b9 4cbe 71d6 3bbf 64fb 20bf
00000290: 23b8 4fbe d9c8 8abe 9257 823d 74cf e23d
000002a0: 057d 303f 5862 543f 5857 9dbf 62b0 79bf
000002b0: 3eea 323e 6db7 933f fc99 ae3e f080 43bf
000002c0: 8073 603e b2bc a83e f375 283f 7f9c 8d3f
000002d0: 2f70 303e 2d14 813f 2020 b9bf 4097 1e3f
000002e0: 49bb fc3e 83f9 52bf ab90 153f 83c7 94bd
000002f0: 0b6f 80be 5c35 0d3f 404b 903e be9d 2b3f
00000300: 535e c0be 555e 623d 1114 c9bf 4c66 a83e
00000310: 2863 94be 90b3 82bf 3b3f 823f 4dcd 11bf
00000320: 17e2 61bf e4c3 e63f ceb8 0d3f 2d5f 053f
00000330: a6e6 933f 8831 963e 2082 51be 4e60 0d3f
00000340: 54a9 ec3d d4a2 883e 5c0e 7a3f f54b 213f
00000350: fadd 913e 1a38 be3f f392 97bf 5d9d b2bf
00000360: a8bd 06bf b958 69bf 2ec5 22bf 5121 183f
00000370: cb3b 643d 3f2a 5f3f e4b1 1fbf 940e b53e
00000380: 062f b23d bce7 a23e 2f69 15bf 9149 8cbe
00000390: ae0c 843f 6180 863e a10a 083e 3b7d d73d
000003a0: a219 25bf 6751 6ebd 7c17 0dbf 0561 9dbe
000003b0: c2cb 283f ee2d 0abf 9470 013f f622 d33e
000003c0: 912a c2bf 340f ce3e 8ffc 64bf 6564 893d
000003d0: 60c5 4e3e b2b7 7b3f 56a4 e4bf 49fe 893f
000003e0: cbc4 ad3d e849 d13f 2eee 6bbe 9767 7fbe
000003f0: cbb2 e13e 0f98 44bf 3eb5 b4bd 2b2d 683f
0.2106106 -1.0708419 1.5186481 -0.44684538 0.061147206 -1.4570843 -0.59504414 -0.46013746
-0.519512 0.06538418 -0.33500364 -0.23094599 -0.08772505 0.30027762 -0.9796268 0.17328495
0.41531554 -0.50998926 -0.7085945 0.32412162 -0.6371133 -0.99326354 -0.16034 0.7905455
-0.073931575 0.5624136 -1.2835987 -0.8436425 -0.3920469 0.2870802 0.8826206 -1.4796405
0.11603198 0.14866143 -0.48983166 0.14833374 0.38720393 -0.109463334 -0.61168325 0.19814077
-0.025020277 -0.5177769 0.5195236 -1.9565204 0.22495379 -0.29508108 0.06593972 -0.8108181
0.9727123 0.28508875 -0.96281576 -1.2671299 -0.21432601 0.59013546 1.1851163 0.088733986
1.0506059 -0.3907372 -0.10519811 1.0500288 0.26208252 0.66609913 0.45827863 0.2929268
0.019933363 0.081273645 0.019721974 -0.70812774 0.5522516 -0.48334646 1.345991 0.3707208
-1.3014059 1.4461483 -1.3393726 -0.7179667 -1.9131405 0.224227 -0.21092527 -1.5397933
-0.43323514 0.22974378 0.9147966 -0.77419746 -0.06253687 -0.12878464 -1.0394495 0.25905475
-0.09172012 -0.7436182 0.13839152 0.5297396 -0.36929515 -0.89122134 -0.26550066 1.0967574
0.089679636 -0.031816185 -0.2950607 0.22760199 -0.9656065 0.38173833 -0.17359912 0.42292202
1.365163 -0.35857472 -0.23170687 0.90539414 0.49456453 1.1187754 0.30120113 1.2580553
-0.18421994 0.17273735 0.168744 0.45358366 0.71862805 0.8911952 -1.0750103 0.74721396
-0.11615676 1.2522073 0.40456906 -0.024581721 0.62940335 -0.8775494 0.34244505 0.7406195
0.9161466 0.13762407 0.25227687 -0.75389904 0.97597 0.055593304 1.0953022 -0.20467857
1.5925046 0.7596518 -1.8744521 0.31209365 -0.061348636 -0.21662998 0.18281655 -0.40198606
0.22847173 0.00017904346 0.28673863 0.29309168 1.1010288 -0.18904662 0.22800426 -0.8102708
1.6393708 0.8880403 0.21738069 0.546055 -0.12571041 -1.0614107 0.31504053 1.4950217
0.23115298 -0.19992685 -0.73374087 -0.6288359 -0.20285086 -0.2710636 0.06364359 0.11074725
0.68940765 0.8296256 -1.229228 -0.97534764 0.17472169 1.1540352 0.34101856 -0.7636862
0.2191906 0.32956463 0.65804976 1.1063384 0.17230295 1.0084282 -1.4462929 0.6194954
0.49361637 -0.82411975 0.5842387 -0.07264616 -0.2508472 0.55159545 0.2818241 0.6703757
-0.37571964 0.055265743 -1.5709249 0.32890546 -0.289819 -1.0211048 1.0175546 -0.5695389
-0.8823561 1.8028531 0.55360115 0.5209835 1.1554763 0.29334664 -0.20459795 0.55225074
0.11555734 0.26686728 0.9767816 0.63006526 0.28489667 1.4860871 -1.184172 -1.3954273
-0.5263314 -0.91151005 -0.6358212 0.59425837 0.055721086 0.8717384 -0.62380815 0.35362685
0.08700375 0.31817424 -0.5836362 -0.27399877 1.031637 0.2626982 0.13285305 0.10521933
-0.6449224 -0.0581831 -0.5511396 -0.30738083 0.6593591 -0.53976333 0.50562406 0.4123761
-1.516924 0.40245974 -0.89447874 0.06708602 0.2019248 0.9832717 -1.7862651 1.0780727
0.08484801 1.6350679 -0.23040077 -0.2494186 0.4408172 -0.76794523 -0.08823632 0.9069392

fc.bias f4 [37]
00000000: a8be 003e 5325 9abd e888 8fbe 5055 81be
00000010: 15a3 33be 1f21 02bf 175a 4ebe d3d3 21bf
00000020: faa1 15bf 9996 9f3c edcf 723e 2e76 e7be
00000030: 08a6 93be 523c 2fbd 568b 1bbe 41fc 15be
00000040: 506f c2be fd6c c4bf 334e 06bf ff55 19bd
00000050: ed2c d3be 8409 47bf 59ae d3be 7663 dfbe
00000060: 5610 2bbf b8b0 0fbf 6640 9ebd 9d1a 0abe
00000070: 93d3 b5bd 0bf7 b73c bd5b fbbe 133e 8fbe
00000080: 7e7a 75bf 8a81 3cbf 338c 21bf 8356 f8be
00000090: a7d4 43bf
0.1257273 -0.0752665 -0.2803414 -0.252604 -0.1754268 -0.5083179 -0.20151554 -0.63213843
-0.5845028 0.01948099 0.2371213 -0.4520735 -0.2883761 -0.042782135 -0.15189871 -0.14647008
-0.3797555 -1.534576 -0.5246307 -0.037435528 -0.41245213 -0.77748895 -0.41343954 -0.4363057
-0.668218 -0.56129026 -0.07727127 -0.13486715 -0.08878245 0.022456666 -0.49093428 -0.27977046
-0.95890033 -0.7363516 -0.6310455 -0.48503503 -0.76496357
