ctc_saved_models/model_epoch290.pth (torch, 114079 bytes, 14 tensors)

cnn.0.weight f4 [16, 1, 7, 7]
-0.18708378 -0.046523172 -0.00748815 0.09449748 0.13237551 -0.043684352 -0.22303532 0.21937436
0.05342568 -0.08521497 0.2626333 0.18536778 0.37670502 -0.09177763 0.0638456 -0.055755615
-0.10115751 0.0808559 0.3542824 0.43072206 0.28656623 -0.10963928 0.011031141 -0.30541003
-0.104880676 -0.04553856 0.42521778 0.24711739 -0.15923485 -0.20061707 -0.4358288 -0.26909488
-0.117718644 0.08199726 0.38251722 0.18380442 -0.019785276 -0.37468866 -0.42498913 -0.46852577
-0.10383239 0.32773045 0.26761416 0.27192718 0.12548222 -0.020089941 -0.30091387 -0.5429476
-0.18900424 -0.11408811 0.20376562 0.39093673 0.39732346 0.45405903 0.4507227 0.08631424
0.13755964 0.04920603 0.16789176 0.09089449 -0.07770429 0.0020639328 0.028626906 0.14078234
0.033852298 -0.44052592 -0.46303174 -0.4958863 -0.49522662 -0.40395096 -0.091962166 -0.12367451
-0.50914526 -0.54973274 -0.6301175 -0.529568 -0.14635587 0.09023359 -0.057133723 0.029718112
-0.19622804 -0.21856599 -0.042815503 0.03740773 -0.027590035 0.043261535 0.14345105 0.114838995
0.21102361 0.47406197 0.33295918 -0.020414043 -0.002838344 0.114388414 0.34575054 0.4177473
0.30336013 0.37293926 0.16412717 0.016518243 0.17724843 0.09744308 -0.007445901 0.35448214
0.35549 0.13668719 0.12993063 0.15250286 0.14478424 0.11839071 0.25339642 0.24023072
0.1529926 -0.041270155 -0.04914702 -0.27168134 -0.006446186 -0.04883635 -0.066157654 0.1868137
-0.008292183 -0.16546145 -0.2966724 -0.022844808 -0.0368355 0.18409932 0.12837632 0.17603035
-0.124355406 -0.31931162 -0.0633823 0.22025773 -0.0022121528 -0.1518226 0.11259981 0.025931187
-0.07836387 0.054826517 0.085877664 -0.1410814 -0.2884691 -0.22591937 -0.20878847 -0.3067443
-0.015754966 -0.0066079376 -0.3647356 0.20688947 0.24248147 0.14797826 0.014515839 -0.18497196
-0.14835587 -0.25041884 -0.05377049 0.066910796 0.19229154 0.06433338 -0.15722613 -0.19800335
-0.17010544 -0.13065664 0.031270403 0.070142485 0.18185002 -0.030372808 0.014408151 0.07391911
-0.114029445 -0.07668902 -0.07874968 0.11224566 0.048891593 0.035940956 0.26835018 -0.16482534
-0.06884596 -0.0099390615 -0.15172131 0.02860445 0.19702019 0.5222535 -0.2375693 -0.07038684
-0.05093428 -0.2675501 -0.18529518 -0.019695804 0.60179824 -0.19904569 -0.1047103 -0.09313726
-0.2940419 -0.06787986 0.032957632 0.40848392 -0.07635411 -0.13013674 0.055383936 -0.24808109
-0.26503444 -0.21657778 0.12806614 -0.010307386 0.10794055 -0.11940973 -0.29974976 -0.24549446
-0.018365487 0.030901402 0.0493551 -0.04347341 -0.2153311 -0.31086662 -0.27255782 -0.05207271
0.23959416 0.029959733 -0.026543207 -0.29876852 -0.18870948 -0.27401993 -0.020709315 0.3266747
-0.064627185 -0.17034492 -0.044936705 -0.114482075 0.03342421 0.24388693 0.5448631 0.08455109
-0.047397457 -0.055791784 0.04933546 0.063731976 0.3601229 0.4910317 0.10872363 -0.1365181
-0.046383616 0.1662887 0.2570421 0.3123472 0.3950331 -0.034170117 -0.12163195 -0.27446455
-0.24116513 -0.117532015 -0.2721729 -0.19882427 -0.2358082 -0.0056190602 -0.15093677 -0.34787267
00000000: e492 3fbe 158f 3ebd 285f f5bb e587 c13d
00000010: 728d 073e 5dee 32bd 5f63 64be aca3 603e
00000020: e3d4 5a3d 3085 aebd df77 863e 0dd1 3d3e
00000030: 7bdf c03e e9f5 bbbd 7bc1 823d 0060 64bd
00000040: ab2b cfbd c797 a53d 8164 b53e 9a87 dc3e
00000050: cfb8 923e 8f8a e0bd f5bb 343c b45e 9cbe
00000060: aecb d6bd a486 3abd 25b6 d93e 570c 7d3e
00000070: 760e 23be 906e 4dbe f424 dfbe cec6 89be
00000080: 7916 f1bd 2eee a73d 4cd9 c33e 3a37 3c3e
00000090: bb14 a2bc 31d7 bfbe 2d98 d9be 9ce2 efbe
000000a0: 13a6 d4bd 49cc a73e b904 893e 0a3a 8b3e
000000b0: 697e 003e a993 a4bc 6211 9abe 9dfe 0abf
000000c0: 548a 41be 07a7 e9bd efa7 503e dc28 c83e
000000d0: fb6d cb3e 6d7a e83e 20c5 e63e 85c5 b03d
000000e0: 6fdc 0c3e 438c 493d d1eb 2b3e e426 ba3d
000000f0: 6d23 9fbd 0c43 073b f982 ea3c 3f29 103e
00000100: b5a8 0a3d 9d8c e1be 7f12 edbe cfe4 fdbe
00000110: 588e fdbe a9d2 cebe a956 bcbd 1049 fdbd
00000120: 5857 02bf 49bb 0cbf 614f 21bf c591 07bf
00000130: 50de 15be 63cc b83d 0d05 6abd 6673 f33c
00000140: 01f0 48be c3cf 5fbe 4f5f 2fbd d938 193d
00000150: 7f04 e2bc 0233 313d d5e4 123e b530 eb3d
00000160: 9316 583e 40b8 f23e a079 aa3e 5a3b a7bc
00000170: 8303 3abb 7944 ea3d 3706 b13e f9e2 d53e
00000180: 0552 9b3e e5f1 be3e f410 283e 4451 873c
00000190: 9d80 353e 3d90 c73d bffc f3bb af7e b53e
000001a0: c902 b63e baf7 0b3e 890c 053e b629 1c3e
000001b0: 5242 143e d476 f23d 2dbd 813e 0bff 753e
000001c0: 18aa 1c3e e50a 29bd 634e 49bd d119 8bbe
000001d0: 873a d3bb a008 48bd aa7d 87bd 174c 3f3e
000001e0: f0db 07bc ba6e 29be 72e5 97be 0925 bbbc
000001f0: d2e0 16bd 8884 3c3e 1575 033e 4d41 343e
00000200: 0cae febd d07c a3be 94ce 81bd 3e8b 613e
00000210: c4f9 10bb 6277 1bbe bb9a e63d a46d d43c
00000220: 3d7d a0bd c591 603d a1e0 af3d a477 10be
00000230: 39b2 93be 6857 67be a5cc 55be 970d 9dbe
00000240: 8f10 81bc 6687 d8bb a0be babe d5da 533e
00000250: 104d 783e 9d87 173e d7d3 6d3c 4a69 3dbe
00000260: 9aea 17be e636 80be 723e 5cbd 8708 893d
00000270: 13e8 443e 38c1 833d e3ff 20be 64c1 4abe
00000280: 1f30 2ebe dbca 05be 6515 003d dda6 8f3d
00000290: e436 3a3e 65d0 f8bc 2a10 6c3c e762 973d
000002a0: 4588 e9bd 220f 9dbd 8347 a1bd 0de1 e53d
000002b0: 8d42 483d d336 133d 3265 893e f9c7 28be
000002c0: 1cff 8cbd 72d7 22bc d55c 1bbe e153 ea3c
000002d0: a9bf 493e 68b2 053f 5e45 73be fa26 90bd
000002e0: 77a0 50bd 54fc 88be 05be 3dbe 1859 a1bc
000002f0: 730f 1a3f a2d2 4bbe 5b72 d6bd bfbe bebd
00000300: a98c 96be 9904 8bbd 95fe 063d ce24 d13e
00000310: 8b5f 9cbd 9142 05be 44da 623d f808 7ebe
00000320: 98b2 87be 91c6 5dbe c523 033e 4fe0 28bc
00000330: ef0f dd3d 178d f4bd cd78 99be e662 7bbe
00000340: 3873 96bc f024 fd3c 9328 4a3d 2d11 32bd
00000350: c27f 5cbe e929 9fbe b38c 8bbe 324a 55bd
00000360: 2c58 753e 1d6e f53c 2471 d9bc 30f8 98be
00000370: 0f3d 41be 574c 8cbe 95a6 a9bc e841 a73e
00000380: 425b 84bd e66e 2ebe 8d0f 38bd 9475 eabd
00000390: d3e7 083d 7fbd 793e 267c 0b3f 1f29 ad3d
000003a0: d623 42bd ed85 64bd fb13 4a3d e985 823d
000003b0: 0762 b83e 8268 fb3e 7faa de3d 67cb 0bbe
000003c0: bffc 3dbd 9647 2a3e 069b 833e f9eb 9f3e
000003d0: c741 ca3e f7f5 0bbd 2c1a f9bd 9e86 8cbe
000003e0: fef3 76be a0b4 f0bd 3f5a 8bbe 9798 4bbe
000003f0: b477 71be 1820 b8bb 2b8f 1abe 5e1c b2be

cnn.0.bias f4 [16]
-0.16542701 -0.074110895 0.11670491 0.19416763 0.027511502 -0.04860885 -0.13742092 0.09424809
0.26461202 0.1917554 0.083506204 0.28466517 -0.14078431 0.18334445 0.014398484 0.02038664
00000000: b365 29be 74c7 97bd fc02 ef3d e1d3 463e
00000010: cd5f e13c 131a 47bd 12b8 0cbe 2505 c13d
00000020: 3a7b 873e 875b 443e 4d05 ab3d a2bf 913e
00000030: c329 10be a6be 3b3e 9ee7 6b3c e201 a73c

cnn.2.weight f4 [32, 16, 3, 3]
-0.26981142 0.047303684 -0.48844877 -0.12673382 0.034210816 0.2684388 0.053572945 0.162675
-0.0003864543 0.06277267 -0.16087304 -0.20509863 -0.110352926 -0.44455183 -0.49549118 0.14132033
-0.28791124 -0.2767077 -0.24750462 0.04629556 0.18288794 -0.14394538 0.16697405 0.15475601
-0.00019631867 0.26640475 -0.30902088 0.109660186 0.2889328 -0.38442978 0.15307781 0.25659364
-0.16560724 0.35776913 0.1729955 -0.20603837 -0.037450086 0.20156102 -0.38378724 -0.026822533
0.05739947 -0.69283056 0.108490594 0.12052544 -0.5108512 0.026832268 -0.010421943 -0.11917089
-0.22776534 0.047530018 0.25828832 -0.083922155 0.07633132 0.19184059 0.10863681 0.12585156
-0.117068954 0.080122195 -0.0570796 0.07134518 0.010484637 0.103359535 0.020151407 0.14993222
0.04339213 -0.036981393 -0.01840569 -0.5396082 0.10308185 -0.13941932 -0.3188334 0.08956116
0.1683318 0.1359136 -0.22125554 -0.041284204 0.2993901 0.02552531 0.0067202374 0.2390689
-0.29365808 0.24357429 0.02133575 -0.46044958 0.21669328 0.15303381 -0.38607898 0.030976312
0.15610337 -0.1946292 0.14204516 -0.12381272 0.15827529 0.1390665 -0.21466511 -0.2364949
0.14878687 -0.43775916 -0.1703037 0.3369142 -0.30076358 0.28986612 0.27625918 -0.75750434
0.28272927 0.1560147 -0.5414741 -0.041138474 0.1426966 0.05645233 -0.38149273 0.04411833
-0.11660271 -0.25852904 -0.09810781 -0.11738377 0.04714165 -0.081948675 -0.3994004 0.24848677
0.04647811 -0.5497252 0.36172926 0.33526707 -0.293683 0.22378385 0.08834857 0.29445758
0.019835386 -0.060138486 0.22212507 0.13220188 -0.17399523 -0.1553099 0.18124987 -0.03840036
0.019280924 0.0716864 -0.039279398 -0.011859212 0.06642193 0.044011332 0.03805209 0.08911442
-0.080314435 0.19759947 -0.28706035 -0.048304707 0.099775635 -0.33225986 -0.012664702 0.21173514
0.11508063 -0.14879413 -0.30917645 -1.1281571 -0.15294147 -0.3772549 -1.6603328 -0.04463505
-0.06541826 -1.0570171 -0.17884026 -0.13465458 0.042169955 -0.30741554 -0.1639009 0.1771964
-0.20291513 0.093122594 0.32593638 0.3652102 0.023503331 0.024797432 0.27298328 -0.083263114
0.020356832 0.16919863 0.012075231 -0.06501332 0.072141446 0.034223683 0.031338535 0.07887341
0.060558427 0.09916205 0.103802994 0.21742064 0.12498247 -0.091068365 -0.07866993 -0.2123665
0.10673227 -0.10668973 -0.20761184 0.25435176 0.08803628 -0.17716378 -0.18579352 -0.0518992
-0.5900192 0.025334246 -0.2251753 -0.74836695 0.060581002 0.06261311 0.17225775 0.2535066
-0.18872239 -0.15124361 0.42440456 -0.26358864 -0.16698042 0.09138864 -0.26528877 0.07922135
0.081066005 0.11742864 0.22376046 0.25295877 -0.06860463 0.20579202 0.1437593 0.06522738
0.1919282 0.1986348 0.14729431 -0.0013103934 0.2378269 0.024516216 -0.06282151 0.40473995
0.09061805 -0.24143018 0.23894735 -0.35025638 -0.22416261 -0.2204508 -0.5314465 -0.047671232
0.02165064 -0.31040382 0.16683364 -0.2690407 0.0044892016 -0.16254073 -0.29327253 -0.058404014
-0.04876598 -0.06074385 0.082489036 0.05030558 -0.2446211 -0.5758139 -0.46155488 -0.23310986
00000000: b924 8abe 82c1 413d f515 fabe 83c6 01be
00000010: a420 0c3d cf70 893e 4e6f 5b3d 4694 263e
00000020: 059d cab9 f58e 803d e7bb 24be 6005 52be
00000030: b700 e2bd 4c9c e3be 05b1 fdbe 47b6 103e
00000040: 1a69 93be a2ac 8dbe da71 7dbe 6aa0 3d3d
00000050: fa46 3b3e 6b66 13be 3ffb 2a3e 5c78 1e3e
00000060: e4da 4db9 3466 883e fc37 9ebe 8595 e03d
00000070: 00ef 933e fbd3 c4be 6ec0 1c3e 3e60 833e
00000080: f294 29be 842d b73e bb25 313e b9fb 52be
00000090: 4365 19bd 0366 4e3e c37f c4be eeba dbbc
000000a0: b51b 6b3d 585d 31bf 5130 de3d 0bd6 f63d
000000b0: 25c7 02bf 58cf db3c ccc0 2abc de0f f4bd
000000c0: 513b 69be d6ae 423d 5e3e 843e 61df abbd
000000d0: 9853 9c3d dc71 443e fa7c de3d 3bdf 003e
000000e0: d9c1 efbd 1b17 a43d 4ccc 69bd 6c1d 923d
000000f0: c1c7 2b3c 2aae d33d 9014 a53c d587 193e
00000100: f2bb 313d cd79 17bd 88c7 96bc c323 0abf
00000110: 941c d33d f0c3 0ebe 223e a3be d76b b73d
00000120: 2c5f 2c3e ef2c 0b3e d090 62be a019 29bd
00000130: a949 993e 741a d13c 7035 dc3b 7ace 743e
00000140: 5a5a 96be 8a6b 793e 50c8 ae3c 0cc0 ebbe
00000150: d8e4 5d3e e5b4 1c3e 25ac c5be 09c2 fd3c
00000160: 90d9 1f3e e14c 47be 4974 113e 8691 fdbd
00000170: eb12 223e 7367 0e3e 2cd1 5bbe b82b 72be
00000180: 965b 183e f821 e0be 1864 2ebe 0580 ac3e
00000190: affd 99be 5569 943e d871 8d3e ceeb 41bf
000001a0: e4c1 903e 51c2 1f3e 0c9e 0abf d180 28bd
000001b0: 0f1f 123e 8f3a 673d 0453 c3be 6cb5 343d
000001c0: 67cd eebd eb5d 84be bfec c8bd e766 f0bd
000001d0: 9a17 413d b5d4 a7bd 367e ccbe 5173 7e3e
000001e0: d55f 3e3d caba 0cbf 9434 b93e 20a8 ab3e
000001f0: 9e5d 96be 9827 653e 18f0 b43d 25c3 963e
00000200: d27d a23c c653 76bd c174 633e ee5f 073e
00000210: ce2b 32be 8f09 1fbe 9199 393e b249 1dbd
00000220: 07f3 9d3c 52d0 923d 6fe3 20bd 244d 42bc
00000230: 3908 883d 3a45 343d 82dc 1b3d 9f81 b63d
00000240: e57b a4bd 8457 4a3e 93f9 92be 28db 45bd
00000250: 2b57 cc3d f71d aabe 9c7f 4fbc 19d1 583e
00000260: 65af eb3d 7d5d 18be 604c 9ebe 7467 90bf
00000270: b09c 1cbe 8e27 c1be c985 d4bf 3ed3 36bd
00000280: 02fa 85bd 564c 87bf e721 37be e4e2 09be
00000290: 67ba 2c3d 9265 9dbe a3d5 27be f972 353e
000002a0: fcc8 4fbe 0fb7 be3d 22e1 a63e d5fc ba3e
000002b0: 0f8a c03c fc23 cb3c 77c4 8b3e da85 aabd
000002c0: 5fc3 a63c 6842 2d3e 31d7 453c b425 85bd
000002d0: e5be 933d 222e 0c3d d65c 003d 6288 a13d
000002e0: 1d0c 783d 7915 cb3d aa96 d43d 84a3 5e3e
000002f0: cff6 ff3d 0d82 babd b31d a1bd 9b76 59be
00000300: 7396 da3d 2580 dabd 3398 54be 653a 823e
00000310: 5d4c b43d 6c6a 35be a840 3ebe 4194 54bd
00000320: 800b 17bf c489 cf3c 5b94 66be fa94 3fbf
00000330: c923 783d 4d3b 803d 5664 303e 9ecb 813e
00000340: 7140 41be 9bdf 1abe 8e4b d93e 17f5 86be
00000350: eafc 2abe f829 bb3d eed3 87be ce3e a23d
00000360: ef05 a63d 6d7e f03d 7621 653e d083 813e
00000370: 9680 8cbd 25bb 523e a335 133e ef95 853d
00000380: d388 443e ec66 4b3e 52d4 163e 82c1 abba
00000390: e588 733e 3bd6 c83c 90a8 80bd 133a cf3e
000003a0: f595 b93d 7939 77be 9dae 743e ce54 b3be
000003b0: e28a 65be dbbd 61be e10c 08bf e942 43bd
000003c0: af5c b13c 40ed 9ebe 70d6 2a3e b4bf 89be
000003d0: 271a 933b 1471 26be d127 96be 0c39 6fbd
000003e0: d6be 47bd 8bce 78bd 03f0 a83d 390d 4e3d
000003f0: f47d 7abe 8a68 13bf ec50 ecbe 5ab4 6ebe

cnn.2.bias f4 [32]
0.16355507 -0.024904568 0.45679408 0.29999453 -0.0551987 0.4000314 0.6905266 -0.04383402
0.020502038 0.21346864 0.21735747 0.035550546 0.2242654 0.17624778 0.010607233 0.33479276
0.29580304 0.13741514 0.112268314 -0.07264377 0.32448673 0.18238209 0.24527723 0.40950763
0.38429132 0.08295613 0.6426716 0.49961948 0.36618724 0.040433668 0.08315571 0.3255852
00000000: fb7a 273e aa04 ccbc eae0 e93e e298 993e
00000010: 0818 62bd ead0 cc3e 5ac6 303f 4d8b 33bd
00000020: e4f3 a73c 8697 5a3e f592 5e3e 739d 113d
00000030: d4a5 653e 4c7a 343e f6c9 2d3c f569 ab3e
00000040: 7f73 973e 8eb6 0c3e eeec e53d 42c6 94bd
00000050: 2023 a63e 5fc2 3a3e f429 7b3e fcaa d13e
00000060: d5c1 c43e e7e4 a93d 2086 243f 20ce ff3e
00000070: e57c bb3e c69d 253d 8a4d aa3d 1ab3 a63e

cnn.4.weight f4 [32, 32, 3, 3]
-0.091816165 0.07108157 -0.60488915 -0.03598742 0.26029384 -0.71293825 0.15873758 0.09092993
-0.2678278 -0.097987965 0.019802283 0.42219278 -0.032519978 0.08286468 0.31747597 0.07653759
0.10784563 0.024234764 -0.18458241 -0.3357844 0.20055465 -0.066272326 -0.4417423 -0.32454434
0.17451544 0.06202642 -0.05657354 0.015828343 -0.064371206 -0.37776488 0.23449966 -0.08105438
-0.36117885 0.5250777 -0.06460066 -0.22153442 0.45772603 0.07879749 0.16220988 -2.3972441e-05
-0.28259823 0.14864863 -0.012251021 -0.18974297 0.0033335485 0.26891887 0.14582926 -0.13379915
-0.032624573 -0.030624563 -0.5531221 -0.09635438 -0.04977696 0.24319775 0.56028914 -0.1317482
0.47771806 0.359108 0.17908545 0.19362673 0.33215058 0.5086265 0.261158 0.016662193
0.057069626 -0.0093881255 0.07874979 0.09159579 0.031456605 0.0038496738 0.07579453 0.046640836
0.36290044 0.40817165 0.9652832 -0.05222915 -0.0028685108 0.28466868 0.09383586 0.096048005
0.21708824 0.051822692 -0.4738615 0.10142609 -0.17425953 -0.21876407 0.24947548 0.017792486
0.63584435 0.37957674 0.33714342 0.020696001 -0.11585301 0.07751174 -0.11972228 -0.2365857
0.23728292 -0.007565779 -0.09379773 0.02756973 -0.38767478 -0.17715488 -0.3382384 -0.7007223
-0.023371633 -0.5862834 0.0006143506 0.5202564 0.15090565 -0.27144653 -0.08710773 -0.96223044
-0.76060855 -0.1920584 -0.38860863 0.016861098 0.33609244 0.2657316 0.19799158 0.15024032
0.26178485 0.16521244 -0.074018925 0.25972915 0.19821133 -0.14026737 -0.0827994 -0.26262882
-0.77798885 0.049818955 0.052699782 -0.5317042 0.15408343 0.050971236 -0.07531892 -0.036734298
-0.35611463 -0.54431987 0.15750429 -0.04728176 -0.26642856 0.18763855 0.31907538 -0.2684131
-0.023056256 -0.06134998 -0.25907984 0.0982771 -0.1975597 -0.19118491 0.21821204 0.0900282
-0.060031362 0.07024466 0.21042313 -0.4745783 0.22167699 0.09811555 -0.2759467 0.2115473
-0.03592775 0.12005039 0.14415266 -0.002270514 0.11995676 0.15008664 0.06929611 0.06720387
0.22662328 0.33976933 0.03577894 -0.012065172 0.01766557 0.021765 -0.020706102 0.07910717
0.0014453379 0.06198216 0.041930515 0.04034009 -0.08609294 -0.21514858 -0.020149285 0.19207315
0.10989323 -0.10446571 0.017119791 0.018330347 -0.22294271 0.5375831 -0.41136426 0.21233375
0.25594312 0.062369276 0.40878606 0.120784596 0.14351718 0.051135633 -0.18005243 0.47129166
0.08907857 0.088316955 0.24271694 0.15650746 -0.047910545 0.04007297 0.34531906 0.17496492
0.036909077 0.28841367 0.02107118 0.22024626 0.061617427 0.056476433 0.15770116 -0.22449817
0.29600978 -0.12365395 -0.42295292 0.05304875 -0.032248907 -0.8083124 0.12209904 0.055451445
-0.23254625 0.30414352 -0.15218614 -0.45507193 0.3554284 0.29367122 0.12002988 0.20260744
0.07428427 0.18515489 -0.24149205 0.3905203 0.18877132 0.14776558 0.30409154 0.18762453
0.0047953036 -0.07625766 -0.18450797 0.3798925 -0.00785232 -0.005525669 0.23470531 -0.10075583
-0.10596555 -0.07985983 -0.19980517 -0.7659957 0.15119639 0.046572667 -0.34901333 -0.06580276
00000000: 1d0a bcbd 3793 913d 04da 1abf 8b67 13bd
00000010: 3c45 853e 1f83 36bf 1b8c 223e 7939 ba3d
00000020: ba20 89be eaad c8bd 6638 a23c a729 d83e
00000030: ab33 05bd f5b4 a93d 368c a23e bdbf 9c3d
00000040: 2bde dc3d fc87 c63c 2c03 3dbe efeb abbe
00000050: 335e 4d3e c9b9 87bd 0c2c e2be ad2a a6be
00000060: 2db4 323e 6a0f 7e3d a8b9 67bd 71aa 813c
00000070: 0dd5 83bd 666a c1be ae20 703e d7ff a5bd
00000080: 6fec b8be 7e6b 063f 5a4d 84bd ebd9 62be
00000090: 115b ea3e 9460 a13d 591a 263e 6d18 c9b7
000000a0: b7b0 90be 5937 183e 82b8 48bc fb4b 42be
000000b0: aa77 5a3b bcaf 893e 4454 153e a502 09be
000000c0: 58a1 05bd 5de0 fabc 6999 0dbf 7255 c5bd
000000d0: ede2 4bbd d508 793e 1c6f 0f3f 00e9 06be
000000e0: 7697 f43e 01dd b73e 2d62 373e 1646 463e
000000f0: a40f aa3e 5935 023f 80b6 853e 277f 883c
00000100: d7c1 693d a7d0 19bc 9247 a13d 9396 bb3d
00000110: a4d8 003d cf4a 7c3b 2a3a 9b3d 760a 3f3d
00000120: 16ce b93e e0fb d03e cd1c 773f 3cee 55bd
00000130: a0fd 3bbb 18c0 913e 042d c03d d1b4 c43d
00000140: 614c 5e3e 0844 543d f99d f2be 7bb8 cf3d
00000150: 1771 32be b003 60be 8076 7f3e 8cc1 913c
00000160: b2c6 223f e257 c23e 109e ac3e a98a a93c
00000170: 5844 edbd 7abe 9e3d f430 f5bd 8643 72be
00000180: 4bfa 723e 5bea f7bb 0619 c0bd ead9 e13c
00000190: 4f7d c6be 1768 35be 952d adbe 8962 33bf
000001a0: de75 bfbc ab16 16bf 5f0c 213a 862f 053f
000001b0: 0387 1a3e 0afb 8abe 8a65 b2bd bc54 76bf
000001c0: 3eb7 42bf f5aa 44be b6f7 c6be 4920 8a3c
000001d0: 4f14 ac3e f90d 883e 4ebe 4a3e 99d8 193e
000001e0: aa08 863e 732d 293e 3c97 97bd 38fb 843e
000001f0: e9f7 4a3e 40a2 0fbe bb92 a9bd 4977 86be
00000200: 472a 47bf f60e 4c3d badb 573d c41d 08bf
00000210: 0cc8 1d3e 37c7 503d ce40 9abd b476 16bd
00000220: a854 b6be 8c58 0bbf ce48 213e 85aa 41bd
00000230: 5369 88be 5224 403e d95d a33e 716d 89be
00000240: 79e0 bcbc 1e4a 7bbd 1da6 84be 8145 c93d
00000250: 174d 4abe fac5 43be fa72 5f3e b460 b83d
00000260: 72e3 75bd 6fdc 8f3d 2979 573e edfb f2be
00000270: 4bff 623e cef0 c83d e348 8dbe db9f 583e
00000280: fa28 13bd fbdc f53d c19c 133e e7cc 14bb
00000290: e4ab f53d 50b0 193e 1eeb 8d3d 2fa2 893d
000002a0: ef0f 683e 3ff6 ad3e f08c 123d 00ad 45bc
000002b0: 63b7 903c 834c b23c d89f a9bc f102 a23d
000002c0: 7e71 bd3a 01e1 7d3d 55bf 2b3d a63b 253d
000002d0: 7f51 b0bd e94f 5cbe 1d10 a5bc d3ae 443e
000002e0: b40f e13d 1ef2 d5bd ce3e 8c3c 8629 963c
000002f0: 184b 64be 0c9f 093f 569e d2be 056e 593e
00000300: fa0a 833e ed76 7f3d 684c d13e ea5d f73d
00000310: 2bf6 123e 9973 513d aa5f 38be 244d f13e
00000320: d36e b63d 85df b43d ca8a 783e 7e43 203e
00000330: d93d 44bd 8e23 243d a9cd b03e 012a 333e
00000340: f92d 173d f5aa 933e 789d ac3c 3c88 613e
00000350: 8e62 7c3d d553 673d 6a7c 213e d9e2 65be
00000360: 988e 973e 483e fdbd 498d d8be a549 593d
00000370: 6e17 04bd 90ed 4ebf 100f fa3d 0e21 633d
00000380: 9b20 6ebe b3b8 9b3e afd6 1bbe 30ff e8be
00000390: b6fa b53e 135c 963e 3ad2 f53d 5378 4f3e
000003a0: 5a22 983d 3e99 3d3e b149 77be 47f2 c73e
000003b0: 454d 413e dc4f 173e e3b1 9b3e a520 403e
000003c0: ec21 9d3b fa2c 9cbd a8ef 3cbe 4581 c23e
000003d0: 04a7 00bc ac10 b5bb 9756 703e 1359 cebd
000003e0: 7704 d9bd 8d8d a3bd ba99 4cbe 4b18 44bf
000003f0: 3ad3 1a3e fbc2 3e3d e0b1 b2be 99c3 86bd

cnn.4.bias f4 [32]
-0.41185892 0.08325191 -0.16552754 0.27270475 0.21201567 0.47924003 0.46888342 -0.09161572
-0.026050642 0.0669797 -0.041256092 -0.119966954 -0.24326599 -0.1741543 -0.17822929 0.64622104
0.1740908 -0.033367295 0.50118834 -0.3148242 0.32937238 -0.51476663 0.14019927 0.023235818
0.8426162 -0.034026448 0.07470316 0.6866683 0.46309328 -0.17810106 -0.08469652 0.3781303
00000000: 2cdf d2be fa7f aa3d 0d80 29be f59f 8b3e
00000010: a31a 593e f35e f53e 7d11 f03e 06a1 bbbd
00000020: 2868 d5bc a72c 893d 26fc 28bd 3cb1 f5bd
00000030: b81a 79be 8155 32be bd81 36be be6e 253f
00000040: dc44 323e 25ac 08bd e14d 003f a330 a1be
00000050: 7fa3 a83e bfc7 03bf 6690 0f3e 0b59 be3c
00000060: b2b5 573f 515f 0bbd f8fd 983d 7ec9 2f3f
00000070: 901a ed3e 2060 36be 5e75 adbd 4b9a c13e

cnn.6.weight f4 [32, 32, 3, 3]
0.09037439 -0.07090991 -0.19393502 0.13639055 -0.031760298 0.072235025 0.023563534 -0.03235875
0.17517906 0.33663076 0.22362779 0.14144105 0.13247082 -0.13339856 -0.10620672 -0.07720117
0.033629328 -0.36377358 0.2599943 -0.038988825 0.3711122 0.113045335 0.03570144 0.14853066
0.19940655 0.16102967 0.18520652 -0.013804591 -0.25184032 -0.1850153 0.067261666 0.09400153
-0.35280406 -0.04903999 0.031419303 -0.2034477 -0.18249382 0.0675279 0.12784716 -0.053498864
0.018113894 0.07922752 0.2935722 0.14087395 0.32543793 -0.090300806 -0.23120452 -0.113526024
-0.23203601 0.16118804 -0.045506734 -0.17848161 0.23744084 0.056110438 -0.51874405 -0.23395085
-0.28850496 -0.8944676 -0.7563496 -0.5699741 0.05410192 -0.5309152 -0.3546655 -0.14401236
-0.083603 0.14958546 -0.10484288 0.0061574574 0.25644773 -0.068477266 -0.20534098 0.4256184
-0.18029255 -0.12023757 -0.53020954 0.024915505 -0.034784153 -0.18633817 -0.26109833 -0.21343979
-0.41291043 0.13588633 -0.22067666 0.21830656 0.2284678 0.17156209 0.44088566 -0.008216279
0.09521493 -0.18630198 0.31728828 0.06549452 -0.22759786 0.225523 0.15841553 -0.28139657
0.25963566 -0.022855856 -0.25927204 0.23650955 0.5503976 0.4336075 0.29237407 0.21010323
-0.04795843 0.5436397 -0.25685656 0.009406469 0.12463308 -0.0040878495 -0.13979691 0.18842523
-0.0050136857 -0.07882914 0.0058008507 -0.04200104 0.4158005 0.24545738 0.085542046 0.04074605
0.054308295 -0.011408312 -0.1259183 0.12340319 -0.014846286 -0.14396556 0.09494155 0.08128756
0.1618931 0.032701004 0.15437122 0.16333123 -0.16916318 -0.010249458 0.25128347 0.42577285
0.026888918 -0.3474749 0.14303634 -0.08076687 -0.00074956246 0.12192078 0.3329895 0.20763455
0.35210863 0.06651215 0.0026911995 0.02130007 0.10059441 -0.06272419 -0.10437618 -0.00017348169
-0.06502915 -0.30687097 0.15097383 -0.13500474 -0.48223552 -0.012047869 -0.49005443 -0.22219537
-0.3015124 -0.49882647 -0.0063313795 0.037097976 -0.36402276 0.032155663 -0.06320885 -0.086261764
-0.0026048536 0.18620867 -0.19195037 0.15745479 0.24790972 0.19310947 0.13772342 0.17657976
0.020162921 0.30763066 -0.048421487 -0.56467885 -0.13377076 -0.15904638 0.2150395 -0.08802104
-0.015927883 -0.09895768 -0.08346718 0.037362754 -0.047390163 0.12164042 -0.11943105 -0.23427722
0.1374255 -0.018550469 -0.26583207 0.1811672 0.076547794 -0.3930251 0.03603914 -0.10899386
-0.55701196 -0.030411746 -0.08385677 -0.07441557 0.14392233 -0.11434183 0.23378493 -0.12396355
-0.17205213 -0.2390191 0.16802475 0.21920198 -0.061171226 0.41552946 0.29389718 0.25800532
-0.019049818 -0.21221744 0.022640076 -0.81778294 -0.25409177 -0.34698817 -0.3891873 -0.13697211
-0.37011224 0.29191092 0.24093159 -0.04480599 0.34560248 0.06947813 0.21974383 0.21387812
-0.14895557 0.19891858 -0.15093796 0.123476356 0.09710389 -0.23544748 0.1575169 0.07232337
0.13121165 0.22969323 0.016183486 0.104867384 0.21832345 -0.35081425 0.013578915 0.37969306
-0.25828865 -0.12134574 0.2234135 -0.4346055 -0.009082187 0.11007059 -0.1315525 0.10775928
00000000: 3516 b93d 3739 91bd e796 46be f7a9 0b3e
00000010: 1617 02bd f5ef 933d 5008 c13c 9c8a 04bd
00000020: 2462 333e de5a ac3e affe 643e ecd5 103e
00000030: 6ea6 073e a299 08be e982 d9bd a61b 9ebd
00000040: e8be 093d 8840 babe f91d 853e bfb2 1fbd
00000050: 6b02 be3e 5084 e73d ac3b 123d 6c18 183e
00000060: 3b31 4c3e f6e4 243e c7a6 3d3e a72c 62bc
00000070: 37f1 80be a774 3dbe 7cc0 893d e083 c03d
00000080: bca2 b4be 28de 48bd 87b1 003d 9854 50be
00000090: a9df 3abe 114c 8a3d 5eea 023e a021 5bbd
000000a0: 9763 943c 0a42 a23d 184f 963e 4341 103e
000000b0: cd9f a63e a1ef b8bd e1c0 6cbe 5580 e8bd
000000c0: d99a 6dbe 7a0e 253e 4565 3abd e2c3 36be
000000d0: b123 733e 0fd4 653d 69cc 04bf d090 6fbe
000000e0: ecb6 93be d4fb 64bf 21a0 41bf d3e9 11bf
000000f0: fa99 5d3d 0fea 07bf b796 b5be fa77 13be
00000100: 0d38 abbd ee2c 193e ddb7 d6bd 7fc4 c93b
00000110: 1e4d 833e cf3d 8cbd e844 52be a8ea d93e
00000120: 9c9e 38be 1d3f f6bd d0bb 07bf 9a1b cc3c
00000130: d479 0ebd 6fcf 3ebe aeae 85be f68f 5abe
00000140: ff68 d3be c925 0b3e 10f9 61be c18b 5f3e
00000150: 77f3 693e f9ad 2f3e c4bb e13e 929d 06bc
00000160: 0c00 c33d f2c5 3ebe 9c73 a23e fe21 863d
00000170: 6a0f 69be 80ef 663e ae37 223e 3613 90be
00000180: f7ee 843e 343c bbbc 4ebf 84be 8f2f 723e
00000190: dbe6 0c3f cd01 de3e 0eb2 953e 4d25 573e
000001a0: 0f70 44bd f92b 0b3f b482 83be 971d 1a3c
000001b0: a13f ff3d 5ef3 85bb ec26 0fbe 8bf2 403e
000001c0: d849 a4bb 2c71 a1bd 1015 be3b 4809 2cbd
000001d0: cee3 d43e 2e59 7b3e ab30 af3d 55e5 263d
000001e0: 6072 5e3d eee9 3abc baf0 00be d0ba fc3d
000001f0: d63d 73bc b56b 13be b770 c23d 187a a63d
00000200: 4ec7 253e 7df1 053d 7d13 1e3e 4d40 273e
00000210: 1d39 2dbe 58ed 27bc 3aa8 803e e6fe d93e
00000220: 2646 dc3c 3be8 b1be 1e78 123e 1a69 a5bd
00000230: 497e 44ba 9ab1 f93d 9a7d aa3e 279e 543e
00000240: 9547 b43e 8637 883d d65e 303b 7c7d ae3c
00000250: 7104 ce3d 8a75 80bd 2ec3 d5bd a3e8 35b9
00000260: 012e 85bd 311e 9dbe e298 1a3e af3e 0abe
00000270: 93e7 f6be 6d64 45bc 6ae8 fabe 2f87 63be
00000280: d55f 9abe 2f66 ffbe 7677 cfbb 0cf4 173d
00000290: 3161 babe a8b5 033d a473 81bd 02aa b0bd
000002a0: 31b6 2abb 7cad 3e3e a38e 44be d43b 213e
000002b0: 0cdc 7d3e 7dbe 453e 5e07 0d3e 53d1 343e
000002c0: b62c a53c c481 9d3e 9c55 46bd cb8e 10bf
000002d0: 34fb 08be 0edd 22be 5133 5c3e 6044 b4bd
000002e0: 317b 82bc 53aa cabd d7f0 aabd b009 193d
000002f0: 301c 42bd 9d1e f93d 4498 f4bd 5ee6 6fbe
00000300: 45b9 0c3e 27f7 97bc 241b 88be e583 393e
00000310: 17c5 9c3d 963a c9be c79d 133d 2c38 dfbd
00000320: 5698 0ebf 0e22 f9bc 19bd abbd 3167 98bd
00000330: 6060 133e 0d2c eabd 5165 6f3e 9ae0 fdbd
00000340: 6f2e 30be 6cc1 74be ae0e 2c3e 7c76 603e
00000350: ae8e 7abd 47c0 d43e b179 963e 4619 843e
00000360: 5d0e 9cbc 874f 59be ae77 b93c 395a 51bf
00000370: 5118 82be 6fa8 b1be 8f43 c7be 6b42 0cbe
00000380: 5a7f bdbe 5975 953e c5b6 763e 7c86 37bd
00000390: cff2 b03e 8d4a 8e3d 8704 613e de02 5b3e
000003a0: cf87 18be 50b1 4b3e 7b8f 1abe 2ce1 fc3d
000003b0: 67de c63d 2519 71be 1c4c 213e 461e 943d
000003c0: 595c 063e b434 6b3e 3b93 843c b6c4 d63d
000003d0: 2f90 5f3e ed9d b3be 197a 5e3c 2167 c23e
000003e0: 693e 84be 1e84 f8bd 82c6 643e 9d84 debe
000003f0: 74cd 14bc b16c e13d b3b5 06be e6b0 dc3d

cnn.6.bias f4 [32]
-0.4202967 0.35543928 0.5726771 0.41435018 0.5593247 0.27135652 0.33888626 0.022478154
0.15257584 -0.052376676 0.17607908 -0.010031721 0.41598842 -0.0076905135 1.0086534 -0.027833676
0.049197 0.176658 0.17035724 -0.0038459797 0.19271456 0.33257902 0.31598586 0.008208352
0.26663384 -0.20456876 0.39751086 -0.063738145 0.38775074 0.08220221 0.2715896 -0.11356233
00000000: 2131 d7be 23fc b53e f79a 123f b525 d43e
00000010: e72f 0f3f 3eef 8a3e 8082 ad3e 1b24 b83c
00000020: d73c 1c3e ed88 56bd 134e 343e 165c 24bc
00000030: 6ffc d43e b400 fcbb 8e1b 813f 7303 e4bc
00000040: cb82 493d d6e5 343e 2172 2e3e d50c 7cbb
00000050: f756 453e cc47 aa3e e6c8 a13e 537c 063c
00000060: 3b84 883e 797a 51be 8b86 cb3e 2589 82bd
00000070: 4487 c63e a259 a83d cb0d 8b3e 5e93 e8bd

rnn_cell.weight_ih f4 [32, 32]
0.012438338 -0.093441725 -0.013231465 -0.7571739 -0.072242916 -0.21880698 -0.986114 -0.3977884
0.073999465 0.09407184 -0.14055376 0.2229076 0.045900654 -0.08402676 -0.59701824 0.17115355
0.68778837 -1.0649687 -0.8184286 -0.102551155 -0.0015531391 0.063311845 0.11646156 -0.07835063
-0.10029096 -0.060334492 -0.14273596 -0.70050687 -0.011883968 -0.044490237 -0.088821 -0.25582087
-0.12473969 0.31648886 -0.21599767 0.7777329 -0.09834759 0.13719043 0.43843627 -0.10462482
0.18860155 -0.3515689 0.19913003 0.22537528 0.36123917 -0.03453031 -0.5887137 -0.028781231
0.14551793 0.107468024 -0.27076307 0.13276504 -0.2888179 0.4035 -0.29469812 -0.223494
-0.15814753 -0.24738131 -0.15868708 -0.28698695 0.6617422 -0.17428225 -0.47389612 -0.103315964
0.52759 0.06859652 -0.37683636 -0.17359932 0.10300266 0.33568797 -0.54502904 -0.2199006
-0.0620553 0.35843554 0.25424635 -0.16900013 -0.23513415 0.36762232 0.26066688 -0.4586989
-0.29089984 -0.47708073 -0.065951444 -0.21069872 -0.17990696 -0.26039994 -0.33928546 0.42413837
-0.6481381 -0.13382098 0.08921848 -1.0999256 0.11329491 0.21237825 -0.2882918 0.106803864
-0.18192387 -1.0183594 -0.05517462 -0.07499265 -0.27889204 0.6524393 -0.71609175 -0.16177528
0.3149552 -0.106241636 -0.4846061 -0.35832492 -0.06210959 0.419667 -0.6120247 -0.17232016
0.07149891 -0.10227775 -0.5927808 -0.11466308 0.16504447 -0.08034698 -0.032976825 -0.1413335
-0.08270827 0.33680913 0.4826114 -0.9203938 -0.3312289 -0.11819793 0.21084319 0.05903887
0.34583956 0.9158926 0.094562344 1.2542354 -0.43656662 -0.19533882 -0.96671855 0.438335
0.37106374 0.62587315 0.019517869 0.35765675 0.16049895 -0.06529329 1.0089806 0.41277242
-0.3476868 -0.12244157 0.057766672 0.59494853 -0.18099901 -0.12506065 -0.024748351 -0.40747425
-0.06261786 0.0033359972 0.2940225 -0.37156218 0.35804325 0.028389363 0.41024214 -0.04068424
-0.31741148 0.3433355 0.23016971 0.2236678 -0.45014545 -0.34809446 0.3406959 0.12821026
0.1813037 0.14711647 -0.14661787 0.17051 -0.09281075 -0.12649587 0.16649736 0.30309436
-0.13420281 0.10172462 0.34323326 0.6723572 0.62855446 -0.32856444 -0.255293 0.63530856
-0.051601443 -0.46502468 -0.02594293 0.34463033 0.043921612 0.34043378 -0.098735504 -0.13076395
-0.15336694 -0.26814294 0.05836758 -0.014524495 -0.21312201 0.18501729 0.5952602 0.15603332
-0.25967467 0.3818967 -0.24388021 -0.09048706 -0.41632724 -0.19080527 -0.026617136 -0.23504385
-0.47588035 -0.5047097 -0.22803889 0.044194832 -0.35362738 -0.18277809 -0.17911029 -0.049316328
0.23456167 0.4646148 -0.07421162 0.22588067 -0.8130585 -0.3435096 0.15760429 0.14859495
0.36702737 0.4399442 0.22182044 0.58508795 0.46029833 -0.45744944 -1.1524234 -0.1625326
-0.12163782 0.043403544 0.10933017 -0.24777779 0.31782833 0.0020352015 0.5487921 0.34904125
0.13021973 -0.20754574 0.20946744 0.27879664 0.077013366 -0.5153911 -0.25652978 0.41473883
-0.5412405 0.01408629 -0.16188149 0.10873884 -0.094934866 -0.070988625 -0.018354768 -0.8317473
00000000: 2cca 4b3c 605e bfbd c9c8 58bc 26d6 41bf
00000010: 18f4 93bd f00e 60be f871 7cbf ecaa cbbe
00000020: 088d 973d bda8 c03d 53ed 0fbe e441 643e
00000030: 5302 3c3d 3916 acbd 30d6 18bf e042 2f3e
00000040: e612 303f e550 88bf 8984 51bf 5706 d2bd
00000050: b392 cbba a4a9 813d 6683 ee3d 4c76 a0bd
00000060: 5965 cdbd 4d21 77bd 6029 12be 6b54 33bf
00000070: f9b4 42bc 653b 36bd c9e7 b5bd f4fa 82be
00000080: 8677 ffbd d40a a23e 7e2e 5dbe 8119 473f
00000090: 766a c9bd a67b 0c3e b87a e03e 8a45 d6bd
000000a0: c420 413e d700 b4be bee8 4b3e c7c8 663e
000000b0: 57f4 b83e a86f 0dbd f1b5 16bf 9ec6 ebbc
000000c0: a702 153e 3218 dc3d 75a1 8abe 8ff3 073e
000000d0: f1df 93be 8d97 ce3e ace2 96be 9cdb 64be
000000e0: 6df1 21be 8751 7dbe de7e 22be f4ef 92be
000000f0: f067 293f 0c77 32be 83a2 f2be 5297 d3bd
00000100: 2310 073f 557c 8c3d b2f0 c0be 05c4 31be
00000110: 0ff3 d23d 4bdf ab3e 0687 0bbf 9f2d 61be
00000120: b32d 7ebd dd84 b73e 942c 823e 5f0e 2dbe
00000130: 02c7 70be fe38 bc3e 2176 853e 95da eabe
00000140: d3f0 94be ed43 f4be 8d11 87bd 68c1 57be
00000150: 8839 38be 2453 85be d3b6 adbe aa28 d93e
00000160: 61ec 25bf 5e08 09be 2eb8 b63d 5dca 8cbf
00000170: 2907 e83d af79 593e fc9a 93be fcbb da3d
00000180: 404a 3abe 9a59 82bf c8fe 61bd bf95 99bd
00000190: f0ca 8ebe 4306 273f ca51 37bf 6ba8 25be
000001a0: cf41 a13e 3795 d9bd 4a1e f8be 5d76 b7be
000001b0: a066 7ebd 98de d63e a7ad 1cbf b274 30be
000001c0: 056e 923d ff76 d1bd 7cc0 17bf 7ad4 eabd
000001d0: 6b01 293e f58c a4bd b512 07bd bbb9 10be
000001e0: f462 a9bd 3f72 ac3e d718 f73e ee9e 6bbf
000001f0: d696 a9be c211 f2bd 47e7 573e bed2 713d
00000200: e211 b13e f077 6a3f e7a9 c13d c98a a03f
00000210: a985 dfbe e606 48be de7a 77bf 726d e03e
00000220: 11fc bd3e 3939 203f f0e3 9f3c c91e b73e
00000230: d659 243e 7db8 85bd 4726 813f e856 d33e
00000240: 0104 b2be a5c2 fabd bf9c 6c3d 8c4e 183f
00000250: ce57 39be e60f 00be 0ebd cabc 77a0 d0be
00000260: cb3d 80bd bfa0 5a3b 1e8a 963e 663d bebe
00000270: 7251 b73e cf90 e83c 420b d23e 85a4 26bd
00000280: c283 a2be acc9 af3e 9cb1 6b3e 2c09 653e
00000290: 7779 e6be 7039 b2be b16f ae3e 8d49 033e
000002a0: ada7 393e b3a5 163e ff22 16be 2c9a 2e3e
000002b0: 9013 bebd 2288 01be 497e 2a3e 2f2f 9b3e
000002c0: 766c 09be ff54 d03d 45bc af3e 9a1f 2c3f
000002d0: f2e8 203f 9939 a8be c4b5 82be 95a3 223f
000002e0: 095c 53bd b717 eebe 4486 d4bc 6373 b03e
000002f0: 26e7 333d 564d ae3e d735 cabd fce6 05be
00000300: 390c 1dbe 084a 89be d812 6f3d 26f8 6dbc
00000310: a83c 5abe 2c75 3d3e f962 183f 33c7 1f3e
00000320: 14f4 84be f787 c33e bcbb 79be 4851 b9bd
00000330: d828 d5be 7562 43be 2e0c dabc 56af 70be
00000340: 97a6 f3be a834 01bf 0783 69be a405 353d
00000350: a60e b5be 2e2a 3bbe b068 37be ebff 49bd
00000360: ef30 703e fee1 ed3e 43fc 97bd 434d 673e
00000370: 9a24 50bf 7ee0 afbe 0563 213e 4629 183e
00000380: 03eb bb3e 5e40 e13e e624 633e 53c8 153f
00000390: 39ac eb3e d036 eabe 9c82 93bf f26e 26be
000003a0: 401d f9bd eac7 313d 7fe8 df3d 76b9 7dbe
000003b0: 65ba a23e 0461 053b a47d 0c3f 89b5 b23e
000003c0: 5258 053e df86 54be a27e 563e 6fbe 8e3e
000003d0: 2fb9 9d3d acf0 03bf df57 83be a658 d43e
000003e0: bd8e 0abf 2fca 663c 43c4 25be 78b2 de3d
000003f0: 366d c2bd 7c62 91bd bd5c 96bc 64ed 54bf

rnn_cell.bias_ih f4 [32]
0.056619536 -0.065548435 -0.0038352222 -0.04108054 0.17881648 0.39873046 -0.045794416 -0.0556547
-0.29058063 0.09772007 0.020830104 -0.20651315 -0.14951523 -0.14471239 0.098924935 -0.18429025
-0.10265555 0.0876078 0.36781833 0.18590063 0.0025613504 0.24395458 -0.051321935 0.024985097
-0.29335812 0.10634499 -0.083687104 0.21833088 0.28945145 0.343863 -0.088818654 -0.31808263
00000000: e3e9 673d 423e 86bd 5a58 7bbb 1144 28bd
00000010: ab1b 373e 6626 cc3e ed92 3bbd 2ff6 63bd
00000020: fcc6 94be 7621 c83d e5a3 aa3c 2f78 53be
00000030: 851a 19be 7c2f 14be 2899 ca3d 95b6 3cbe
00000040: 133d d2bd b86b b33d af52 bc3e bc5c 3e3e
00000050: 54dc 273b 3bcf 793e f336 52bd 8cad cc3c
00000060: 0933 96be 67cb d93d 2564 abbd 2192 5f3e
00000070: fb32 943e d00e b03e 8ee6 b5bd badb a2be

rnn_cell.weight_hh f4 [32, 32]
0.4363814 -1.529503 0.050522428 -1.2000436 -0.3240184 -0.01954917 -0.79446423 -0.29708025
-0.15292695 0.22445656 -0.1445817 -0.1997404 -0.070039846 0.10334461 -0.4568333 0.15996571
-0.18064138 -0.49679586 -0.90323883 -0.0038018594 -0.11785262 -0.087448046 -0.05750602 -0.3042005
0.073923916 0.07235412 -0.019595724 -0.861791 -1.2353772 0.005534272 0.12929128 -0.17883798
0.02381402 0.23647968 -0.1444822 0.71599025 0.015872944 0.047409732 0.38968632 0.07376569
0.14649972 0.19412977 0.01677172 -0.121302575 -0.17409322 0.14272007 0.3534881 -0.15008551
-0.010411074 -0.3998039 0.28752452 0.16237433 -0.77642554 -0.049735 -0.091770366 -0.18905817
0.17956822 0.3411045 0.08456156 0.51507795 0.6539795 -0.13564786 -0.034905765 0.3277052
-0.056141976 -0.5851456 0.3703392 -0.8082467 -0.2888278 0.051848073 -0.50847405 -0.043344166
0.13199344 -0.43433833 0.037724108 -0.0049518785 0.1756837 -0.22730115 -0.3205043 0.1474379
-0.38501897 -0.0822646 0.21990953 -0.12054701 -0.17526765 -0.06550653 0.105074175 0.14011079
0.13386598 -0.026208896 0.00021382557 -0.51961094 -0.15180348 -0.21952623 -0.27985033 -0.25568134
0.14687294 0.342551 -0.20104095 0.52191156 -0.018165333 0.08628079 0.17504595 -0.03999512
0.11980715 0.0915053 0.08755824 0.10915463 -0.36864072 0.16484205 0.365487 -0.082792275
-0.20095997 -0.31548586 0.010542718 -0.13938168 -0.9587395 0.23087388 -0.16135314 -0.32143503
0.07390585 0.47758 0.1406984 0.8110477 0.54785657 -0.09263466 0.07006577 0.20969823
0.5416507 -1.1258816 0.3982603 -1.8457947 0.48270226 -0.33180848 -1.2011571 0.010544557
-0.2486721 -0.056188285 0.08442363 -0.07348453 -0.2149894 0.2953721 -0.13948977 0.3760681
-0.37187785 -1.1509904 -0.80199575 -0.14441909 -0.14871627 -0.27229697 0.40259025 -0.18033674
0.101924255 0.5122918 -0.13196278 -1.3811569 -1.1226591 0.25670162 0.2848636 0.21016592
0.08326618 -0.41250247 0.5731579 -0.6498137 0.08569435 -0.35391477 -1.2833948 -0.026849193
-0.22741114 -0.026034242 -0.44074395 0.5980611 0.10042812 0.122155905 -1.3142221 -0.06769015
0.29572943 -0.48436517 -0.47365567 0.3168293 -0.42185596 -0.3008998 0.12537795 0.064975865
-0.4571228 0.514996 -0.41696492 -0.80801696 -0.22607227 0.32018954 0.5197297 -0.65927655
0.12530616 0.50241435 -0.06341359 0.9409454 -0.029047102 0.21156403 0.3995345 0.10075859
0.06490436 0.07046202 0.25755072 -0.27095258 0.06622472 -0.05545774 0.47057307 0.062945336
-0.11187593 0.5958191 0.39021763 0.02452433 -0.76982456 0.103959486 -0.21627164 -0.19971274
0.28886265 0.039363705 0.22855714 1.1153852 0.95717454 -0.033716947 0.020959606 0.30002245
0.019605182 -0.74981517 0.20317115 -0.9875663 -0.5680311 0.06003983 -0.5946705 -0.0906103
-0.017505597 0.10042527 0.18088028 0.09126912 -0.15352963 0.203796 -0.29263127 0.29722518
-0.43941927 -0.9950574 -0.8091747 -0.21180923 -0.026441095 0.0751004 0.19087501 0.08974384
0.24319112 -0.3079703 0.031096313 -0.853614 -0.6441307 0.1290673 0.26111236 -0.07885662
00000000: 626d df3e c1c6 c3bf 9bf0 4e3d 079b 99bf
00000010: bde5 a5be 9525 a0bc 0262 4bbf e71a 98be
00000020: e298 1cbe f1d7 653e 3a0d 14be bf88 4cbe
00000030: 0d71 8fbd 57a6 d33d 0ee6 e9be 0dce 233e
00000040: 0efa 38be 075c febe a93a 67bf 9e28 79bb
00000050: b75c f1bd f617 b3bd 6f8b 6bbd 2bc0 9bbe
00000060: 6c65 973d 662e 943d 3687 a0bc 569e 5cbf
00000070: d720 9ebf d758 b53b ef64 043e 4e21 37be
00000080: 9f15 c33c bb27 723e 24f3 13be 234b 373f
00000090: fa07 823c b530 423d f784 c73e 7712 973d
000000a0: 0604 163e f4c9 463e d964 893c 7c6d f8bd
000000b0: 7e45 32be 3625 123e 64fc b43e 04b0 19be
000000c0: 3693 2abc 19b3 ccbe 6a36 933e 7545 263e
000000d0: d3c3 46bf edb6 4bbd 1af2 bbbd 7798 41be
000000e0: bbe0 373e 40a5 ae3e 9c2e ad3d 26dc 033f
000000f0: 336b 273f 46e7 0abe 59f9 0ebd fac8 a73e
00000100: 21f5 65bd 1acc 15bf 1a9d bd3e 41e9 4ebf
00000110: 3de1 93be a55e 543d 5b2b 02bf a789 31bd
00000120: 4a29 073e 9861 debe 9884 1a3d 5e43 a2bb
00000130: 6ee6 333e a2c1 68be 2419 a4be f6f9 163e
00000140: 3521 c5be 587a a8bd f72f 613e 5ae1 f6bd
00000150: 5d79 33be 4a28 86bd 2131 d73d 3479 0f3e
00000160: 2a14 093e 0ab4 d6bc 5d36 6039 3905 05bf
00000170: 5f72 1bbe 7ccb 60be 8b48 8fbe aae8 82be
00000180: dc65 163e d862 af3e aedd 4dbe ff9b 053f
00000190: 77cf 94bc fcb3 b03d 3f3f 333e ecd1 23bd
000001a0: 735d f53d 2167 bb3d bc51 b33d 768c df3d
000001b0: 7abe bcbe 5bcc 283e 1d21 bb3e ff8e a9bd
000001c0: 73c8 4dbe 5d87 a1be 5dbb 2c3c 12ba 0ebe
000001d0: f46f 75bf 346a 6c3e c239 25be 2293 a4be
000001e0: f35b 973d 5e85 f43e 3e13 103e d2a0 4f3f
000001f0: 5440 0c3f 3eb7 bdbd a47e 8f3d 22bb 563e
00000200: 9fa9 0a3f e31c 90bf c6e8 cb3e 0043 ecbf
00000210: c024 f73e cde2 a9be 84bf 99bf 14c3 2c3c
00000220: e6a3 7ebe b025 66bd 4ce6 ac3d 0f7f 96bd
00000230: 2e26 5cbe 033b 973e 68d6 0ebe ff8b c03e
00000240: c666 bebe a753 93bf 984f 4dbf 99e2 13be
00000250: 1449 18be 826a 8bbe 4f20 ce3e 32aa 38be
00000260: aabd d03d 8e25 033f 4021 07be c0c9 b0bf
00000270: 4bb3 8fbf 656e 833e a4d9 913e bc35 573e
00000280: 7587 aa3d 8633 d3be 7aba 123f 315a 26bf
00000290: 8580 af3d 5134 b5be 4846 a4bf d7f2 dbbc
000002a0: 77de 68be c345 d5bc 31a9 e1be 881a 193f
000002b0: 42ad cd3d e02c fa3d 6e38 a8bf 22a1 8abd
000002c0: d969 973e b6fe f7be ff82 f2be 7337 a23e
000002d0: 81fd d7be 8a0f 9abe 1463 003e 1112 853d
000002e0: 000c eabe c7d6 033f 6d7c d5be 33da 4ebf
000002f0: 7d7f 67be e2ef a33e 010d 053f 59c6 28bf
00000300: 4250 003e 3a9e 003f fcde 81bd cce1 703f
00000310: 30f4 edbc 3ea4 583e c98f cc3e 855a ce3d
00000320: 94ec 843d 644e 903d b0dd 833e 4cba 8abe
00000330: d3a0 873d a827 63bd f4ee f03e 7ce9 803d
00000340: 351f e5bd 9a87 183f 9bca c73e 3fe7 c83c
00000350: 3913 45bf b6e8 d43d 5076 5dbe 7f81 4cbe
00000360: cee5 933e d63b 213d e20a 6a3e f1c4 8e3f
00000370: 6409 753f c81a 0abd 7bb3 ab3c 8b9c 993e
00000380: 0c9b a03c e3f3 3fbf 190c 503e 25d1 7cbf
00000390: 7c6a 11bf 53ec 753d 533c 18bf e591 b9bd
000003a0: e667 8fbc c4ab cd3d ae38 393e 4eeb ba3d
000003b0: df36 1dbe e6af 503e c4d3 95be e62d 983e
000003c0: 90fb e0be 15bc 7ebf 1326 4fbf 85e4 58be
000003d0: ff9a d8bc 3dce 993d bd74 433e 9ecb b73d
000003e0: 1807 793e 48ae 9dbe b2bd fe3c 7286 5abf
000003f0: c0e5 24bf 382a 043e 85b0 853e 947f a1bd

rnn_cell.bias_hh f4 [32]
-0.01497675 0.15713137 0.26609284 0.040591963 0.18195888 0.23629722 0.13704662 0.14640304
-0.17670588 -0.085073955 0.10929537 0.004503163 -0.45985436 -0.07723493 0.0238181 -0.0941322
-0.20639859 -0.042435735 0.35758412 0.25414833 0.065154515 0.23298766 0.05137873 0.026546555
-0.32012388 0.13461937 -0.015999325 -0.006699145 0.32633397 0.18430626 0.085942596 -0.42565963
00000000: 0b61 75bc 0ce7 203e 523d 883e c243 263d
00000010: 6e53 3a3e e6f7 713e f355 0c3e aeea 153e
00000020: 63f2 34be 413b aebd 40d6 df3d 458f 933b
00000030: 0872 ebbe 592d 9ebd 2d1e c33c 62c8 c0bd
00000040: 275a 53be 18d1 2dbd 4415 b73e bb1f 823e
00000050: bb6f 853d 5194 6e3e 8172 523d 2978 d93c
00000060: 47e7 a3be a9d9 093e 0411 83bc 8084 dbbb
00000070: 3f15 a73e c8ba 3c3e ac02 b03d 0ff0 d9be

fc.weight f4 [37, 32]
0.21869731 -1.0604179 1.5219128 -0.46876082 0.037028305 -1.4514598 -0.5912413 -0.47975346
-0.5520791 0.018950786 -0.35088494 -0.18796587 -0.06683213 0.29404742 -0.9783307 0.17242828
0.41994974 -0.5172012 -0.7087415 0.30637488 -0.61159027 -0.99800324 -0.19995917 0.7917019
-0.09349075 0.5422891 -1.3176738 -0.8125235 -0.42466423 0.26634732 0.8905466 -1.4957844
0.12546326 0.16379099 -0.48898387 0.15056995 0.38781592 -0.09327586 -0.6075779 0.21295653
0.00951105 -0.54221195 0.54056305 -1.953551 0.18596525 -0.30046117 0.097958684 -0.82331574
0.9866855 0.27360505 -0.9317465 -1.2480199 -0.23455235 0.5601916 1.1898214 0.08156276
1.0489964 -0.40249783 -0.13245237 1.0196788 0.24041903 0.67588687 0.41788962 0.29082206
0.019439759 0.06389497 0.048508253 -0.7366577 0.5437549 -0.47793302 1.288169 0.36087862
-1.3180342 1.4450126 -1.2841396 -0.7020741 -1.8937016 0.2538357 -0.2307609 -1.5456243
-0.42667395 0.22870316 0.8913251 -0.7327952 -0.04957253 -0.102824815 -1.0851045 0.23763461
-0.10747998 -0.74958956 0.17740946 0.52092224 -0.39084446 -0.89384747 -0.26799417 1.0379483
0.07973245 -0.058127925 -0.31166977 0.22592175 -1.0036682 0.38357273 -0.15707701 0.40415373
1.3821878 -0.3427098 -0.21677397 0.87780213 0.4753771 1.127352 0.2959889 1.2600757
-0.21002555 0.17719431 0.15153392 0.43761182 0.7318178 0.90366304 -1.0770959 0.7264776
-0.104159705 1.2666671 0.41710782 -0.038877457 0.60273343 -0.90541613 0.33302945 0.7808645
0.90123034 0.12194317 0.2603005 -0.7742279 0.9832899 0.08435399 1.07301 -0.20671439
1.5645199 0.75987256 -1.8617736 0.32843617 -0.040326063 -0.18073991 0.18183887 -0.39416102
0.23583202 0.015273957 0.30384117 0.28017154 1.0855764 -0.1940972 0.24121699 -0.7870732
1.6031935 0.8564931 0.23571926 0.554415 -0.15822965 -1.0324024 0.32283393 1.4762133
0.24766977 -0.21752872 -0.75267327 -0.632279 -0.16864319 -0.23226021 0.06034125 0.14289598
0.6544595 0.82067835 -1.2443961 -0.9456931 0.16149218 1.1244206 0.3199669 -0.7522347
0.1876792 0.31370562 0.63828725 1.0809369 0.19328101 0.9801755 -1.452291 0.6370283
0.4789722 -0.81290346 0.5633424 -0.09688784 -0.2745968 0.5255311 0.2897585 0.7053587
-0.32125226 0.049372755 -1.5922595 0.33517206 -0.26082155 -1.0086728 0.98760235 -0.5426871
-0.8832202 1.7697256 0.5523753 0.53099775 1.1393285 0.29757875 -0.2355778 0.57236475
0.13333309 0.23034726 0.93553454 0.6336209 0.29407328 1.4957837 -1.1922475 -1.3746952
-0.5535141 -0.9270621 -0.61675847 0.5771568 0.069239385 0.8375686 -0.62704253 0.36662355
0.11582845 0.30802494 -0.58806956 -0.2716755 1.0445462 0.32027042 0.12385328 0.1314809
-0.61696535 -0.08911151 -0.53610134 -0.32570142 0.6391727 -0.53427696 0.46652684 0.37939504
-1.4839863 0.3818916 -0.8818285 0.04020638 0.19329432 1.0032185 -1.7642225 1.0739151
0.07599947 1.6464882 -0.17952332 -0.25495818 0.4503675 -0.7508355 -0.11234045 0.920657
00000000: 30f2 5f3e c6bb 87bf 0ace c23f 6b01 f0be
00000010: feaa 173d 6fc9 b9bf 975b 17bf 3fa2 f5be
00000020: 0e55 0dbf ae3e 9b3c 31a7 b3be 207a 40be
00000030: 49df 88bd 628d 963e e173 7abf 0a91 303e
00000040: a703 d73e 4c67 04bf 1570 35bf 2bdd 9c3e
00000050: 2e91 1cbf 247d 7fbf 19c2 4cbe faac 4a3f
00000060: 1478 bfbd 75d3 0a3f 89a9 a8bf 8a01 50bf
00000070: 976d d9be ad5e 883e ddfa 633f dd75 bfbf
00000080: 7179 003e d3b8 273e 185c fabe 022f 1a3e
00000090: cf8f c63e 6a07 bfbd 3a8a 1bbf 4711 5a3e
000000a0: 3cd4 1b3c 67ce 0abf 5762 0a3f f60d fabf
000000b0: ad6d 3e3e 0cd6 99be 909e c83d d2c4 52bf
000000c0: 6c97 7c3f f615 8c3e f086 6ebf 1ebf 9fbf
000000d0: 7e2e 70be b768 0f3f 114c 983f 600a a73d
000000e0: 8445 863f 3214 cebe 98a1 07be d684 823f
000000f0: 6830 763e ec06 2d3f a1f5 d53e a1e6 943e
00000100: 2140 9f3c 5edb 823d 97b0 463d 9995 3cbf
00000110: 8533 0b3f a3b3 f4be b9e2 a43f 15c5 b83e
00000120: 58b5 a8bf 2cf6 b83f b05e a4bf 21bb 33bf
00000130: d064 f2bf c1f6 813e 964c 6cbe 04d7 c5bf
00000140: 0275 dabe 2931 6a3e e22d 643f 7798 3bbf
00000150: 910c 4bbd d195 d2bd b4e4 8abf 7d56 733e
00000160: 771e dcbd 1ae5 3fbf d3aa 353e 295b 053f
00000170: c41c c8be 30d3 64bf 8836 89be 7ddb 843f
00000180: c44a a33d 8c17 6ebd 2e93 9fbe 0858 673e
00000190: 3378 80bf a563 c43e ccd8 20be 3ded ce3e
000001a0: 88eb b03f a977 afbe fff9 5dbe a4b7 603f
000001b0: a164 f33e 124d 903f db8b 973e 294a a13f
000001c0: f010 57be 6d72 353e b52b 1b3e a80e e03e
000001d0: 6958 3b3f 7656 673f 47de 89bf 70fa 393f
000001e0: af51 d5bd 2622 a23f 288f d53e f83d 1fbd
000001f0: bd4c 1a3f 5ac9 67bf d682 aa3e bce6 473f
00000200: 08b7 663f 57bd f93d 1b46 853e cd33 46bf
00000210: e3b8 7b3f c9c1 ac3d 6458 893f f0ac 53be
00000220: 3042 c83f 0287 423f 994e eebf c928 a83e
00000230: f12c 25bd e213 39be f833 3a3e 79cf c9be
00000240: f37d 713e 9e3f 7a3c 1291 9b3e a572 8f3e
00000250: 2bf4 8a3f 6bc1 46be 9601 773e a17d 49bf
00000260: 7235 cd3f 2243 5b3f 6460 713e 24ee 0d3f
00000270: f406 22be c325 84bf 7d4a a53e 8ff4 bc3f
00000280: 259d 7d3e d9bf 5ebe 32af 40bf 09dd 21bf
00000290: cdb0 2cbe 9fd5 6dbe 6328 773d 5353 123e
000002a0: a88a 273f fa17 523f 5f48 9fbf f118 72bf
000002b0: 355e 253e 04ed 8f3f b4d2 a33e 7492 40bf
000002c0: fa2e 403e 069e a03e cb66 233f 245c 8a3f
000002d0: 75eb 453e c8ec 7a3f ace4 b9bf 4914 233f
000002e0: d83b f53e 711a 50bf 3537 103f 226d c6bd
000002f0: f497 8cbe 3589 063f 3a5b 943e 6392 343f
00000300: 2d7b a4be 163b 4a3d 29cf cbbf ac9b ab3e
00000310: 678a 85be 311c 81bf 82d3 7c3f 8bed 0abf
00000320: b81a 62bf 5e86 e23f 7868 0d3f 78ef 073f
00000330: 84d5 913f 3e5c 983e 4f3b 71be 7f86 123f
00000340: 7888 083e 27e0 6b3e 317f 6f3f fb34 223f
00000350: c690 963e d775 bf3f 919b 98bf 03f6 afbf
00000360: 1ab3 0dbf f153 6dbf e2e3 1dbf 8cc0 133f
00000370: 61cd 8d3d e56a 563f dc85 20bf 15b6 bb3e
00000380: 7737 ed3d 72b5 9d3e ba8b 16bf 0d19 8bbe
00000390: b1b3 853f 7cfa a33e caa6 fd3d eea2 063e
000003a0: 71f1 1dbf 1880 b6bd f03d 09bf 56c2 a6be
000003b0: d2a0 233f 60c6 08bf 9bdc ee3e 1140 c23e
000003c0: 43f3 bdbf 4c87 c33e 83bf 61bf 72af 243d
000003d0: f2ee 453e 7769 803f 0bd2 e1bf 0d76 893f
000003e0: 9ca5 9b3d 20c0 d23f f6d4 37be e189 82be
000003f0: 9296 e63e c136 40bf c012 e6bd 2db0 6b3f

fc.bias f4 [37]
0.13745086 -0.06281978 -0.27018946 -0.26325524 -0.18284683 -0.48692897 -0.1734371 -0.5952556
-0.56604004 0.011046805 0.23745938 -0.43861723 -0.2843352 -0.04565546 -0.15853664 -0.13221115
-0.37849292 -1.514683 -0.52222794 -0.053513054 -0.40824142 -0.7604472 -0.36693394 -0.40525746
-0.6860351 -0.52578926 -0.047793582 -0.14467387 -0.08605789 0.027517535 -0.49630645 -0.26277575
-0.93574697 -0.7210486 -0.6078621 -0.45038185 -0.749812
00000000: ebbf 0c3e a8a7 80bd 4656 8abe 64c9 86be
00000010: 333c 3bbe c14e f9be 7f99 31be ac62 18bf
00000020: 00e8 10bf a9fd 343c 8d28 733e 7092 e0be
00000030: 6294 91be 3801 3bbd 6e57 22be 5c62 07be
00000040: d3c9 c1be 22e1 c1bf bbb0 05bf 8130 5bbd
00000050: 0505 d1be abac 42bf c4de bbbe e87d cfbe
00000060: ff9f 2fbf 209a 06bf 34c3 43bd 6325 14be
00000070: 1e3f b0bd 746c e13c e11b febe 8b8a 86be
00000080: 1d8d 6fbf a496 38bf da9c 1bbf 7398 e6be
00000090: aef3 3fbf
